results/windowing_contrast/windowing_contrast.pth (torch, 114037 bytes, 10 tensors)

con0.weight f4 [10, 1, 3]
00000000: 7be9 3cbf 4908 3fbe 6613 2f3f 26d5 e1bd
00000010: 63fe 38bf 7afe 54be 7172 e03e 3795 193d
00000020: accf e6be 90d1 e23e 352f d8be 81f4 cdbe
00000030: 351b 123f b8a9 253f 222e 223f c6d5 e23e
00000040: c02e e6be d665 af3e b532 c13e 5919 0c3f
00000050: 3ba1 153f 8c9f a43e 8c20 183f f1f6 cb3e
00000060: 3024 ab3e 6ce7 74be 4618 033f 268d d7be
00000070: 7d76 a53e 81a8 a0be
-0.7379376 -0.18655504 0.68388975 -0.11026983 -0.72263163 -0.208002 0.43837312 0.037495818
-0.45080316 0.44300508 -0.42223516 -0.40225604 0.57072765 0.64712095 0.63351643 0.4430372
-0.44957542 0.34257382 0.37734 0.5472618 0.58449143 0.32152975 0.5942466 0.3983684
0.33426046 -0.23916405 0.51208913 -0.42099875 0.32316962 -0.31378558

con0.bias f4 [10]
00000000: 0c65 083e a71c 723d 31af 06be 4194 c83e
00000010: 057c 6cbe 1f65 0fbf 09d3 dcbd 7d81 a13e
00000020: b219 803e b105 d83e
0.13319796 0.059109356 -0.13152768 0.3917561 -0.23094185 -0.56013674 -0.10782439 0.31544104
0.25019604 0.42191842

con1.weight f4 [10, 10, 5, 2]
00000000: d73e c0bd 80b3 ea3b 87b2 9ebd faac e13c
00000010: a038 8fbd 23c4 30bd cd5d 49bb aa89 a9bd
00000020: 1d86 7abd f50d a93d 3d90 363d 00f8 1e3b
00000030: b016 4dbd f790 3bbd 9065 5fbd 0058 6ebc
00000040: 1be5 aa3d 5306 f63c 75e8 91bd 2dde 26bd
00000050: d75f bc3d ba93 c63d 9abb 883b 824f c53d
00000060: a7db b73d 87a8 89bd e04f d2bc d356 cdbc
00000070: 0a47 623d 2f34 83bd 27fe 1f3d 87bc c8bc
00000080: 2006 9ebd 07f1 38bd 8d8a a63d ef8c b0bd
00000090: 38a1 bbbd 236a 58bd b7aa 0d3d 4089 36bd
000000a0: 0a37 003d c777 2c3d 209a 893c 1871 95bd
000000b0: dacf 24bc e589 cabd 3d18 7b3d 5a60 9abd
000000c0: 3a75 d03c 270a 66bd c8a7 9dbd fa06 e5bc
000000d0: cd6b 0fbc 8001 bcbd 7a46 c63d 002f 05bb
000000e0: 00af 8dbc edbf 9bbd b3b9 173c 252b ab3d
000000f0: addd 893c e0b4 21bd 6324 403d cd34 41ba
00000100: 6d50 babc b369 613c 4dce c53c 80f6 f3bb
00000110: 87cd cabd 1336 eabc 58e7 8ebd 6707 b03b
00000120: 0d0b c0bc e0ef d43c df36 c73d e00b 7f3d
00000130: 72c2 bbbd e26c aabd dd0f 59bd f0ba 6ebd
00000140: 103b 74bd e77f 2bbd 4d1c 353c 9f8e 93bd
00000150: e822 a4bd 3313 6bba ad2f bcbd da20 16bc
00000160: 9025 26bd 38d8 bdbd 9a7c 57bc 87d8 523d
00000170: 4719 adbd 6d4d 1bbd 6023 acbd 2dae 8c3d
00000180: f3a3 3e3c b090 a7bd 6a9e 373d 4b71 90bd
00000190: bdf9 b23d 2b50 0a3e 8dec 8a3d 864f 1c3c
000001a0: 5003 02be ca0f fe3d 2d4b b2bc 0ee2 4fbd
000001b0: 6d79 7f3d ddd8 9fbd 34a5 5e3d 461b ce3d
000001c0: 716d 26bc 2e06 d2bc 7aa7 93bd 74e4 c3bd
000001d0: a76b 333d 6fd0 2ebc 5ed9 e13d e1c4 9a3d
000001e0: ade5 cd3b 907c 173d ccb8 5dbd d8da 13be
000001f0: 463f 183d 3e5d 7d3d 4b4a 553e f466 283e
00000200: b305 213d 5ee4 5d3e 2eea 18bd 360a 383d
00000210: 867e 1bbc 25c0 7d3d b56f a43d 2c74 ddbd
00000220: 4902 493d 62cf 453c 45d8 94bd 0c3e 383d
00000230: 43a5 143d d90e 1dbd e33c c03d d1e7 943d
00000240: 2e51 6abd 1635 febd b5e0 d1bd 4602 94bd
00000250: 2818 50bc a2d4 94bd 9a24 74bb f36d 0ebd
00000260: 9aac 383d 1a83 cb3c 15d7 983d da54 233c
00000270: 1769 9cbd 5d5d 4c3d 27f2 ab3c 331b 69bc
00000280: bb73 77bd 15bf 163d d484 db3c 24c5 0e3c
00000290: b27b 62bd 1c39 b4bd 62ca 2bbe 2e31 2abd
000002a0: 3d42 5cbd f45b b8bd 5f78 a6bd 8554 8a3c
000002b0: 765e a8bc 8d54 a03d a4b3 b43d 8882 ae3d
000002c0: 2a99 21bd bb41 f13c 7e2e 4abd 4f1d 8bbd
000002d0: 88a2 b1bd bcdf 13bd c315 c2bd 02b4 67bd
000002e0: 6478 353d 3b4d 0abd 7bd6 a03d 3576 37bd
000002f0: 2498 76bd 9fd3 a7bd 9db2 d03d 8f0b 97bd
00000300: df1f 9f3d aa7e 6fbd b599 b93d cece 63bd
00000310: 5469 7cbd dd7f ec3b 048a 433c 09cc 543d
00000320: 27b0 ddbc 2070 13bd d201 a13d e740 0a3c
00000330: 5a19 c43c e2b6 a83d bad5 89bc a0d8 64bd
00000340: 0d4d b33c 20b1 223d 3302 ad3d 0027 9fbb
00000350: 0059 0b3b 1080 c3bd 0acf b7bd 0dcd 78bc
00000360: e025 f73c 6d4e aebc 33f9 933c dda5 22bd
00000370: 3d66 b83d 9a26 8abd f350 2e3c 4b20 b53d
00000380: 6bc6 babd ba06 2bbd 408d 73bc 9be1 b7bd
00000390: e7c1 923c fde4 043d 63ce 373d 33fc a2bb
000003a0: 334a 113d e79f 65bd 0730 8ebc 8add 733d
000003b0: 9ae2 9ebb 7d0b c7bd 650b aebd 733f 533c
000003c0: f75d a33d b733 ac3d 5aca 013c 405a b33d
000003d0: 688b 91bd e590 97bd e736 8f3b ea71 013d
000003e0: ca9e 1a3d 704e 03bd 079f 29bd 978c 3d3d
000003f0: 07ee c9bd 0d89 d6bc 5a77 623c ab0d b63d
-0.09386986 0.0071625113 -0.07748895 0.027548302 -0.06993222 -0.0431558 -0.0030726076 -0.082782105
-0.061163057 0.08254615 0.04457115 0.0024256706 -0.050070465 -0.045792546 -0.054540217 -0.014547348
0.0834448 0.030032312 -0.07124416 -0.040739227 0.091979675 0.09696145 0.0041727545 0.096343055
0.08977442 -0.06721597 -0.025672853 -0.025065815 0.05524353 -0.064064376 0.039060738 -0.02450396
-0.07716012 -0.045151737 0.08131895 -0.08620631 -0.091616094 -0.052835595 0.034586634 -0.044564486
0.03130249 0.042106416 0.016797125 -0.072969615 -0.010059321 -0.098895825 0.061302412 -0.07537909
0.025446523 -0.056162026 -0.07698017 -0.027957428 -0.008753729 -0.091799736 0.09681411 -0.0020322204
-0.01729536 -0.07604966 0.009260583 0.083578385 0.016829336 -0.039479136 0.0469097 -0.00073702337
-0.022743428 0.013758111 0.024146223 -0.0074451566 -0.099024825 -0.028590238 -0.06977719 0.005371976
-0.02344277 0.025993288 0.09727263 0.062267184 -0.09167947 -0.08321549 -0.052993644 -0.058283746
-0.05962664 -0.041870024 0.011054111 -0.07204937 -0.0801447 -0.00089673995 -0.09188781 -0.009163106
-0.040563166 -0.09269756 -0.013152266 0.051476028 -0.08452087 -0.037915636 -0.08405185 0.06869159
0.011635768 -0.08181894 0.04482881 -0.07052859 0.0873904 0.13507144 0.067834 0.009540444
-0.12696576 0.12405355 -0.021764362 -0.050752692 0.06237166 -0.07805035 0.05435677 0.10063796
-0.010157929 -0.025637712 -0.07209678 -0.09565058 0.043803837 -0.010669812 0.110277876 0.07557083
0.006283483 0.036984026 -0.054131314 -0.14438951 0.037169717 0.0618565 0.20829122 0.16445524
0.039312076 0.21669146 -0.037332706 0.044931613 -0.009490615 0.06195082 0.08029119 -0.10813174
0.049074445 0.01207337 -0.07267813 0.044981048 0.03629042 -0.038344238 0.09386613 0.07270778
-0.057206325 -0.12412469 -0.102479376 -0.07226996 -0.012701072 -0.07267119 -0.0037253262 -0.034772824
0.04508648 0.024842788 0.07462899 0.009968961 -0.07637232 0.049893726 0.02098949 -0.014227676
-0.060413104 0.036803324 0.026796736 0.008713994 -0.055293746 -0.08799955 -0.16776422 -0.041550808
-0.053774107 -0.09001914 -0.08128428 0.016886005 -0.020552855 0.07828627 0.08823326 0.085209906
-0.03945271 0.029450288 -0.049360745 -0.067926995 -0.086735785 -0.03610204 -0.09476807 -0.056568153
0.044304267 -0.03376506 0.07853409 -0.044790465 -0.060203686 -0.081946604 0.10190318 -0.073752515
0.07769751 -0.058470406 0.090625204 -0.055617146 -0.061623886 0.007217391 0.011934761 0.051952396
-0.027061535 -0.035995603 0.07861675 0.0084383255 0.02393787 0.08238007 -0.016825546 -0.055870652
0.021887327 0.0397197 0.08447685 -0.004856944 0.0021262765 -0.0954591 -0.089750364 -0.015185607
0.030169427 -0.02127763 0.018063163 -0.03970896 0.090038754 -0.06745644 0.010639417 0.0884405
-0.091198765 -0.04175446 -0.01486522 -0.08978578 0.017914725 0.032444943 0.04487456 -0.004973912
0.035471153 -0.056060698 -0.017356886 0.059537448 -0.0048487904 -0.09718988 -0.08498267 0.012893545
0.07976907 0.08408301 0.0079217795 0.08757448 -0.07106668 -0.07400683 0.0043705585 0.031602778
0.03774909 -0.032057226 -0.041411426 0.046276655 -0.09859853 -0.026188398 0.013822401 0.08889326

con1.bias f4 [10]
00000000: 00e1 ec3c f122 e7bc 9378 80bd 9543 28bc
00000010: 4882 8dbd ab26 0d3b 92b5 6cbb 8702 923d
00000020: 29cd ab3d 11b8 b1bd
0.028915882 -0.028214904 -0.06272998 -0.010270019 -0.06909615 0.002153794 -0.0036118967 0.07129388
0.083887406 -0.08677686

lin0.weight f4 [256, 20]
00000000: 045a 56be 543f 3e3e 5e17 4c3e ec08 b7bd
00000010: b2fe 1c3d 12ac 1fbe 780e d33d ef08 473d
00000020: 06b5 34be 269b 333e 5d24 adbd 09b9 2d3e
00000030: 124c 81bd ea40 7f3b 2b7b cd3d e0ae 8abe
00000040: 8c2e 8bbe 08b2 62be 1b3a 54bd a7c1 0bbe
00000050: 69dd 583e fa75 bd3d 63ca 443c 612e 5bbe
00000060: 9bf4 9dbc 1671 4d3e 23c7 de3b 0129 3c3e
00000070: b4b3 3ebe f2a5 20be bad2 943d c48a 63be
00000080: 4dc4 41be c493 9a3d 7fa0 3d3e 1266 a43d
00000090: 2686 023d 8621 273e 867d 163e 7b45 5b3e
000000a0: 7fd7 353e cd3a 853d 2ab9 0cbe f1a7 ca3d
000000b0: 31ea 2fbe 4bab b63d 44bb 4ebe 9c69 9b3d
000000c0: c94e 493e 25f8 73bd b0b2 af3c 0d11 b03d
000000d0: 7bde f03c d82b 75bd 920c 84be 5501 243e
000000e0: 0e0b b8bd 1068 33be b603 59be b261 e43d
000000f0: 3879 483e 0641 2d3d 0d1e 093e 7465 2f3b
00000100: cb7d 4fbe d734 fc3c aab5 343e 232c 4e3d
00000110: 3c30 08be ce5c 69bc 8534 6b3d 2141 043e
00000120: 9e8d 5ebe 72b1 3abd ab2d 4fbe 7c66 5a3e
00000130: fe06 4e3e 6cdd 73be c92a 1c3e 1975 5cbe
00000140: 23aa be3d d5f1 fdbd f69b dbbd 5ac9 a43d
00000150: a5b0 a5bc 43a3 a03d 7c88 99bd 2ac9 38be
00000160: 0dc3 483e 5ed1 283e 1802 afbd eb03 0cbe
00000170: 54ca 9d3d 8124 bfbd 3ce9 a0bc 750e 19be
00000180: c9f1 1b3e 9621 84bd b917 423d efd2 6ebd
00000190: 7005 ce3d d3c5 1d3e c23a 3dbe 818f fd3d
000001a0: ad77 133d e5f6 0cbc 9a23 e33d 97fe 133e
000001b0: 00ca 913d 933b 90bd 519f 833d e77e 833d
000001c0: 2f30 7dbd d992 e73b 09c5 b93b 2a87 ce3d
000001d0: 933a 10be 4330 52bd 38d1 623e 7c5e bc3c
000001e0: 4520 d7bd 9750 9dbc a80e 943e 5ffa 523e
000001f0: 090e 2f3e 67b8 013d 1251 e4bb 3752 133d
00000200: d205 f73d 948f c33d aafb 92bd e320 33bd
00000210: 05e9 afbc 2c94 8dbe 0013 cebd 9e3c 82be
00000220: 3335 8fbe 7e15 c73d fd59 a13d d202 073e
00000230: 2a44 95bb e04b 2d3e 824c 0bbe f302 283e
00000240: ad46 4c3e 110e acbc 76b3 f13d 0d66 eebd
00000250: c58b 28be f533 b5bd bdaa cf3d 2387 2b3e
00000260: 6724 6ebc 49df a3bd e51a 2ebe d613 2dbe
00000270: 567c 1bbe 1f40 99be 8a23 273e b878 cd3d
00000280: 2909 703c c66e f03d 48dc 34be 163a 9cbc
00000290: 305d 27be cde9 193e f855 523e 2e8c 5abd
000002a0: 0142 81bd 8594 0bbe ba9e f2bd 4386 10be
000002b0: 482d 473d a2ea e4bd ca42 92bc 10e7 d9bd
000002c0: d9a8 633d 0b5a 2bbe 157d 833d 20ab 7a3d
000002d0: 0a4d 2f3e 8fbd 0c3e 8b4d 10bd 16a8 653d
000002e0: bef0 923d fc1f 8f3c 1505 f03c 4a97 79be
000002f0: ac48 89bd 2c9e 373e 136f 773d ee54 6cbe
00000300: f961 a6bd a7c2 67be 0ac6 75be e8dc a03c
00000310: 83a7 653e aa29 08bd 1325 20bd d453 413e
00000320: 82ad c9bd 764f 2abe 4de7 573e 6b30 abbd
00000330: de4e 103e 8dda d7bd ed06 9dbd d6a6 14be
00000340: 0f17 89bd 00f5 63be 8e7d e5bb f31b 3fbe
00000350: 1fa4 f0bd 4f51 46bd 3c98 20be 1f7b 27be
00000360: 873f 63bd c2d9 3a3e 11eb 593e 9034 cfbd
00000370: f96c 593e ad65 23bb 7b28 91be 0301 e1bc
00000380: 9b7e 1dbe 35dc e43d 26f6 af3d b4aa e5bc
00000390: 0177 eebc 71d9 1f3d 38ed 413e 0cb7 32be
000003a0: 8c28 7fbd d70a ef3d 0d75 a8bd d4a6 4c3e
000003b0: 64b7 613d 3954 c5bd b53e 303e 7f5d 153e
000003c0: 5655 d737 7603 8ebd 6031 33be 9dcf 33be
000003d0: dfa0 20be 2b0c 2a3e 163d 34be 4993 813e
000003e0: 175c 4abe 5b16 28be 3f08 36be 0081 283e
000003f0: db5d 53be 471d 0dbd 930f d03d c501 263e
-0.20932776 0.18578845 0.19930789 -0.089372486 0.038328834 -0.15592983 0.10305494 0.048592504
-0.1764718 0.17539653 -0.08454201 0.16965117 -0.063133374 0.0038948604 0.10033258 -0.27086544
-0.2718395 -0.22138226 -0.051813226 -0.13648091 0.21178211 0.09251018 0.012011143 -0.21404411
-0.019281676 0.2006267 0.0067986413 0.18375017 -0.18623239 -0.15688303 0.072667554 -0.22220904
-0.18922539 0.07547715 0.18518256 0.08027281 0.031866215 0.16321382 0.14696321 0.21413223
0.17757986 0.06505356 -0.1374251 0.098953135 -0.1717918 0.0891939 -0.20188624 0.07588503
0.1965896 -0.05956282 0.02144751 0.08597002 0.029402962 -0.059856266 -0.2579084 0.16016133
-0.089864835 -0.17520165 -0.21192822 0.111514464 0.19577491 0.04229834 0.1339037 0.0026763352
-0.2026283 0.030786915 0.17647424 0.05033506 -0.1329965 -0.014243318 0.057423133 0.1291547
-0.2173371 -0.04557938 -0.20232265 0.21328157 0.20119855 -0.23814934 0.15250696 -0.21529044
0.09309795 -0.123996414 -0.107231066 0.08046217 -0.020225832 0.0784364 -0.074967355 -0.18045488
0.19605656 0.16486117 -0.08545321 -0.1367337 0.07704607 -0.093331344 -0.019642465 -0.14946921
0.15228952 -0.064517185 0.047385905 -0.05830663 0.10059631 0.15407495 -0.18479446 0.12380887
0.036002804 -0.008603786 0.11090775 0.14452587 0.071186066 -0.07042613 0.064268716 0.06420689
-0.06181353 0.007067066 0.0056692404 0.10084374 -0.14084844 -0.051315557 0.22150123 0.022994272
-0.10504202 -0.019203467 0.28917432 0.20603321 0.17095198 0.03167 -0.006967672 0.035967078
0.12061657 0.0954887 -0.07176907 -0.043732535 -0.021473417 -0.2765211 -0.10062218 -0.25436872
-0.27970275 0.09720896 0.07878492 0.1318467 -0.004555245 0.16923475 -0.13603404 0.16407375
0.19948836 -0.021002801 0.118018076 -0.116405584 -0.16459568 -0.08847801 0.101399876 0.1675077
-0.014535046 -0.08001573 -0.17002447 -0.16902098 -0.15184149 -0.29931733 0.16322151 0.10032791
0.014650621 0.11739878 -0.17662156 -0.019070666 -0.16344142 0.15030594 0.20540607 -0.053356342
-0.06311417 -0.13630874 -0.11846681 -0.14113717 0.048627168 -0.11177565 -0.017854113 -0.10639775
0.055580948 -0.16733567 0.06420342 0.061198354 0.17119232 0.13744186 -0.0352302 0.056068502
0.07174824 0.017471306 0.029299298 -0.24374118 -0.06703314 0.17931432 0.060408663 -0.23079273
-0.081241556 -0.22632848 -0.24001327 0.019636586 0.22427182 -0.03324286 -0.039097857 0.18879634
-0.09847547 -0.16631874 0.21084328 -0.08358844 0.14092585 -0.10539732 -0.076673366 -0.14516768
-0.06693851 -0.22261429 -0.0070034927 -0.18663006 -0.117500536 -0.048417386 -0.15683073 -0.1635556
-0.055480506 0.1824713 0.21281077 -0.101174474 0.21232976 -0.002493243 -0.28351197 -0.027466303
-0.15380327 0.11174814 0.08591871 -0.0280355 -0.02910948 0.039025728 0.18938148 -0.1745264
-0.062294528 0.116719894 -0.08225451 0.19985515 0.055106536 -0.09635205 0.17211421 0.14586447
2.5669735e-05 -0.06934254 -0.17499304 -0.17559667 -0.15686367 0.16606204 -0.17601427 0.25307682
-0.19761692 -0.16414778 -0.17776583 0.1645546 -0.20641272 -0.03445175 0.101592205 0.16211613

lin0.bias f4 [256]
00000000: 6b8a e13d 8a0c 5bbe c9e6 023e ad81 26be
00000010: 7c6e 5ebe b7e7 013e 3715 283e 9555 093e
00000020: 1796 0dbe 9c15 b13d dbb2 1cbe 760a 5c3d
00000030: 5d07 a9bd 1b82 e7bc 422d 93bd 846a af3d
00000040: 86bd 393d d424 303e 6cf9 b43d c896 29be
00000050: 8eb9 a1bd 39eb f5bd 5ccc f53c 2ef7 193e
00000060: c62c fbbd e363 80bd 7b55 a4bc 27db 0dbb
00000070: f9ed 893b e724 be3c 7f7e d0bd b039 13be
00000080: 317e a9bd 4ff5 433e 1c00 83bd d04b f6bd
00000090: de6b 383e 05e6 2d3e 0b7c 353e 1361 20be
000000a0: 4b9d e7bd 25d9 0ebd 50d5 d4bc 7407 303e
000000b0: 3258 d0bd a06a cfbd d0ae 843d dd6f 023e
000000c0: 6ff9 3fbe b42f abbd d213 353e 0c3d 7e3d
000000d0: ccdb 15be 7091 4a3e 2600 2fbe 9851 ca3d
000000e0: 2c1d 063e f234 f5bd 86e5 de3d 60d8 663e
000000f0: ca81 aabd e041 0a3d 56ad 27be 125b 1fbe
00000100: 0600 a1bd 69d4 993d 37cd 85bd dd4c 57bd
00000110: 9090 b7bd 830f 36be 8d10 2abd 05cc be3c
00000120: 1285 08be 90b1 15be 072c 3ebe bc51 adbc
00000130: a5c6 57be 617a 653d 746d c0bc 4c65 5fbe
00000140: 86c4 ea3d 7885 d03d 8af0 3abe 05dc e3bd
00000150: 6f74 523d 6488 f93b 7388 52be 3d23 083e
00000160: 2bef 61be 2960 f1bd d49b 63be f0f3 31be
00000170: f7a1 1a3e 73fb a2bd db4e 3abe 9b73 e73d
00000180: 3f6d 63be 10c9 633d 2315 46be 4872 203e
00000190: e4ae 28bb 4268 2b3e 3356 863d fba9 c63d
000001a0: 00b3 81bd ab86 47bd 0230 0dbe 1e64 d03d
000001b0: e18d 373e d595 fb3c b8a9 18be 7aa0 a53c
000001c0: e6ff 11be 47ea 0e3d 066d 1a3e 9a33 65bb
000001d0: 5fbe 033e 5b72 06be 7080 be3d 93e4 d83d
000001e0: 47d8 ed3d 3218 003e c648 253e 1902 2c3e
000001f0: 6413 9e3d bcd2 debd 3a86 9ebd 20a2 053e
00000200: 01ca 3b3e 85b8 87bd ad3f ee3d ac1c 62be
00000210: 259d 8e3d ddff f83d 9449 d73d 63de 133e
00000220: 5ef7 1ebe b333 edbd 2089 53be 5139 95bb
00000230: aff2 1cbe 0d8a 31bd 47a2 5abd 099f 8cbd
00000240: 95bf 2a3e 3948 92bb 7e3c 433e 05d1 273e
00000250: 1705 0e3e f33e 363e d4be ac3d ec3c 22be
00000260: 22ef bdbd 3697 eb3d 62e2 24be b310 a93a
00000270: 1347 60bd 471d 093e 5a4c 1b3e fd2e b0bd
00000280: 72ac 9abd 75ee 193e 71a1 b83d 33cb 82bc
00000290: df4f 16be d069 3dbc b710 99bd 9f8e b5bc
000002a0: 2d45 023e 1823 003e 1a65 283d 4e65 2bbd
000002b0: bbc2 243e 7f91 bf3c 594a 6a3d 9c69 34be
000002c0: 65d3 d6bd 8782 38be 3546 493d 0443 2abc
000002d0: b1ba 19be 9551 573e d6db 493d 896c 67bd
000002e0: 908d 6f3e 7eb4 15bd ae2a 05be e1e4 41be
000002f0: 75b2 3c3e 17b8 00bc 2031 c23d 3c2c 99bd
00000300: 90b4 473a f04f e83c 90db 033e 1630 81bc
00000310: 67a3 b23c a97a 373d 9fcd 9ebd 5440 e73d
00000320: 24df 1b3e da0a 78bd 1913 173e 5996 f33d
00000330: b68d 823c d581 e13d eabc c8bd d227 a4bd
00000340: 56dc bb3d 7260 b93d ac20 c2bd ab40 973c
00000350: a998 c3bd 6df0 2cbe d79b 82bd 3d2f 393e
00000360: 9117 033e ccb3 48be e3df c2bd b01a 5bbe
00000370: 8373 85bd cd94 283c 0ad0 12be 8294 393e
00000380: 3658 10be 5dad 323d 65d7 193e 4870 0bbe
00000390: 5b38 b33d fe4d 3dbe f2bf 343e 7f3d da3d
000003a0: a951 663c 4952 f7bd 7e02 e83d 724c 463e
000003b0: e0c1 473d 9edc a4bb a109 a13d d01f aa3d
000003c0: d84b 8ebd 0c7a 6abd 4219 ff3d aa1b 41be
000003d0: c1b8 b23d 189a 27bd 50c8 5fbe 3de4 373d
000003e0: d2dd 3c3e 11ab e7bd 04c7 3fbe c54f e0bc
000003f0: cd41 f43d dbec 43be 0a94 ddbc 4c23 2fbd
0.11012729 -0.21391502 0.1278335 -0.16260405 -0.21721834 0.12686048 0.16414343 0.13411553
-0.13826786 0.086467 -0.15302603 0.053720914 -0.082533576 -0.028260281 -0.071863666 0.08565238
0.04534676 0.17201549 0.08836636 -0.16561425 -0.0789672 -0.12007756 0.030004673 0.15035698
-0.12264399 -0.06269052 -0.020060292 -0.0021645518 0.0042092768 0.023210956 -0.10180377 -0.14377475
-0.08276022 0.19136547 -0.06396505 -0.12026179 0.18009898 0.16982277 0.177231 -0.15662031
-0.11309298 -0.034875054 -0.025980622 0.17190343 -0.10173072 -0.10127759 0.06478655 0.12737985
-0.18747495 -0.08358708 0.17683342 0.062069938 -0.14634627 0.19782043 -0.170899 0.09878844
0.13097066 -0.11972989 0.10883622 0.22543478 -0.083255365 0.03375423 -0.16374716 -0.15562084
-0.078613326 0.07511217 -0.06533282 -0.052563537 -0.0896312 -0.17779355 -0.04151969 0.023290643
-0.13332012 -0.14618516 -0.18571483 -0.021157138 -0.2107187 0.056024913 -0.023489691 -0.21815985
0.11463265 0.10181707 -0.18255821 -0.1112595 0.05138057 0.007615136 -0.20559864 0.13294692
-0.22063892 -0.11785919 -0.22227412 -0.17378211 0.15100847 -0.079581164 -0.18194143 0.11301347
-0.22209643 0.05561167 -0.19344 0.15668595 -0.0025739009 0.1673899 0.0655941 0.0970039
-0.0633297 -0.048712414 -0.13787845 0.10175346 0.17925216 0.030711094 -0.14908493 0.020218123
-0.14257774 0.034891393 0.15080652 -0.0034973384 0.1286559 -0.1312956 0.09301841 0.10590472
0.11613517 0.1250923 0.16141042 0.16797675 0.07718542 -0.10880038 -0.077404454 0.13050127
0.18338777 -0.06626991 0.11633239 -0.2208125 0.06963567 0.12158177 0.10512081 0.14440303
-0.1552405 -0.115821265 -0.20657778 -0.004553952 -0.15326951 -0.043344546 -0.053377416 -0.06866271
0.16674645 -0.004464176 0.19066045 0.16388328 0.13869129 0.1779745 0.08434835 -0.15843552
-0.092741266 0.115034506 -0.16101983 0.0012898654 -0.05475528 0.13390075 0.15165845 -0.08602712
-0.075524226 0.1503237 0.090151675 -0.015966034 -0.14678906 -0.011560872 -0.07473891 -0.022162734
0.12721701 0.12513387 0.041112043 -0.04184466 0.16089909 0.023384808 0.05719981 -0.17618412
-0.10489539 -0.18018542 0.04913922 -0.010391954 -0.15012623 0.21027215 0.049281918 -0.05649999
0.23393846 -0.036549084 -0.13004562 -0.18934967 0.18427451 -0.00785639 0.09482026 -0.0747914
0.00076181535 0.02835843 0.12876725 -0.01577 0.021806432 0.044794712 -0.07754063 0.112915665
0.1522184 -0.060557224 0.14753379 0.11893911 0.015936714 0.110110916 -0.098016575 -0.080154076
0.09172885 0.090515986 -0.09478888 0.018463453 -0.09550602 -0.1688859 -0.0637738 0.18084426
0.12801959 -0.19599837 -0.09515359 -0.21396899 -0.06516173 0.010289383 -0.14337173 0.18123057
-0.1409615 0.043622363 0.15023573 -0.1361705 0.08750983 -0.18486783 0.17651346 0.10656261
0.014057555 -0.120762415 0.113286 0.19365099 0.048768878 -0.0050311824 0.07863165 0.08306849
-0.0694806 -0.0572453 0.124559894 -0.18858209 0.08726645 -0.04091844 -0.21853757 0.0448954
0.18443993 -0.11311925 -0.18728262 -0.027381787 0.11926613 -0.19133322 -0.02704813 -0.04275827

lin1.weight f4 [80, 256]
00000000: 1dbf 893c 2ce2 8ebc 11c6 9ebb b887 ea3c
00000010: ac69 a7bc e1ab b43a b954 ffbc 6bfb 8cbd
00000020: 2277 2dbd d84d 6abc c2d5 043d f08d 23bd
00000030: 6afc 233d c567 a13b 6ec6 eabb 74e6 313d
00000040: a760 e53c 0933 9ebd 4caa 023c 705e bdbc
00000050: 32c0 e93c 249a 78bd 876c d03c a594 07bd
00000060: f8c6 fd3c 1545 4cbd 9c4b 18bd 5ac8 8fbc
00000070: eecc 6abd 8b31 863d f896 4c3d 5c3f e63c
00000080: e9b7 04bd bb30 27bd e6b5 1cbd 4709 2dbd
00000090: 1211 e2ba 4a47 8aba 6656 5ebd 6ebc 683d
000000a0: bc4d 0ebc 4608 043d 261f b4bc 6ffe e6bc
000000b0: 28ba c93b 2b2f 203d cde3 cd3c e023 6abd
000000c0: a4b3 b53c 0080 8ab9 5610 bfba 980b ee3b
000000d0: 8e5c 343d 9b13 d53c 87af 0ebc d0bf 31bd
000000e0: 179a 69bb cc81 1b3d 7321 493d 52a0 7bbd
000000f0: fec8 293d 62cf 61bd 584a 763c 2091 0fbd
00000100: 8297 233c 5167 8abd 5309 f8bb f80a a4bd
00000110: b1c7 643c 3cea c8bc 8c76 cd3c ce53 763d
00000120: 9168 cb3c 3d81 8f3c 4a6b 653d baee 92bc
00000130: 54f6 2bbd 8e27 9bbc 4c99 8dbd d04e 153d
00000140: 505e 45bd ceb2 19bd 785a 5cbd e804 613d
00000150: 38bb efbb 929c d03c bec9 293d 27d3 5bbd
00000160: 5496 613d 42f0 b3bc 4825 fc3c c603 523d
00000170: 3bd5 bd3c 2282 48bd bf07 80bd 1d41 fabc
00000180: dfc9 283c 4a88 62bd 4aab 93bd e993 a33c
00000190: 232a 833d ab68 cfbc 14c9 7f3d b1a8 2ebd
000001a0: 9a5f 6fbd 8a55 87bd 40f5 5d3d 7460 553c
000001b0: 3dfd f03c 4f6d e2bc b22a d5bc 5389 e83c
000001c0: 583e 8cbd c1db 5b3c 596b 0f3c 775f 563d
000001d0: 8684 bfbc a8d3 923c 37be 03bd fe58 f53c
000001e0: 9c09 f33c ca43 aabc ea28 31bd 2908 2bbd
000001f0: 2582 4c3d 2001 f63c 1762 803d ce66 443d
00000200: 10a2 c3bc 203b 523d 4a05 bebc 84af e9bc
00000210: fb69 f43c af6a 70bd 1fb5 f6bc 4162 003d
00000220: 60e1 313d 8b12 7fbb ac90 033d 8012 1b3c
00000230: 135e e8bc b4b1 793d 8e3e 2abc 3524 c1bc
00000240: 49be 37bd acd7 9bbd 2280 8ebc 1ac5 b03b
00000250: 182c 193b bda2 d9bc 215e 033b 384f 0fbd
00000260: a35d a2bd 416e ccbc ddf1 67bc 0a3b bf3c
00000270: 803f bbbc ee39 aa3c f6ac 1cbd 8290 243d
00000280: 60f9 17bd 88fc ba3c 3007 09bd 2bdf c6bd
00000290: 3d25 6c3c 6c77 70bd 0093 dc3a 2326 efbb
000002a0: 6de2 3c3d 3bad d83c a787 2d3c 0a84 a6bd
000002b0: c0ec b63c 2e20 d6bc 1a82 64ba bb5a e73c
000002c0: dd1f 76bd f04f 8c3b 646e adbc dc06 933d
000002d0: 0c98 2e3d effc 513c baff d2bc e1aa fdba
000002e0: b87e b43a 62f4 2fbc d0ad b93b e0cd 00bb
000002f0: 7ad9 4e3d 79dd 1fbd ceca 2f3d a620 1dbd
00000300: c109 5ebd fa72 94bd e218 42bd f5d0 543d
00000310: f8b2 7fbd b750 68bd fa35 a0ba 440a f4bc
00000320: 17d3 673c 5edd 223d 9fec f9bc bf3d ee3c
00000330: 7e31 ad3c 3339 01bd 0a7b 79bc 583e 223d
00000340: 20b7 c9bc f8f8 1e3d b89a a9bc b5f5 82bb
00000350: 8278 33bd 02d5 753d a8b2 17bd e56a 573d
00000360: e02e a53c 5668 563d 1037 e9bb 4280 383d
00000370: d4fc 1cbb 3e34 54bb c094 bcbc 02b8 3f3d
00000380: 8c9b 203d 9daf 4f3d 0b9d 373d 1c5d c7bc
00000390: d497 1b3d 6602 4abd c28c 31bb 01be b0bc
000003a0: 9ea3 f13c 7e63 01bd 7c57 50bd 2781 b03a
000003b0: 8595 f33b 54a7 d8b8 e4d2 e5bc daa3 d1bc
000003c0: c668 5abd 5814 753d 6aba 91bd 6f9e 77bc
000003d0: 9486 063d bfce fa3c 84e5 b4bc dc01 18bd
000003e0: a64a 59bd 02bd 693b 069b 36bd 94f0 343c
000003f0: 76f9 9d3c 6417 febc 2e2d 14bd e2b4 a1bd
0.016814763 -0.017441832 -0.0048453887 0.028629169 -0.02043613 0.0013784134 -0.031168329 -0.06883892
-0.042349942 -0.014300786 0.032430418 -0.039930284 0.040035643 0.0049257004 -0.007164768 0.043432668
0.028000189 -0.07724578 0.007975172 -0.02311632 0.028534029 -0.060693875 0.025442375 -0.033100743
0.030978665 -0.04987057 -0.03718148 -0.01755159 -0.057324342 0.06552418 0.049948663 0.028106384
-0.032401953 -0.040817957 -0.03825941 -0.042245176 -0.0017247519 -0.001054981 -0.054281615 0.056820326
-0.0086855255 0.032234453 -0.021987509 -0.028197495 0.0061562248 0.039107483 0.025133038 -0.05716312
0.022180386 -0.0002641678 -0.0014577012 0.0072645657 0.04403358 0.026010325 -0.008708841 -0.043395817
-0.0035644823 0.03796558 0.049104165 -0.06143219 0.041451447 -0.055129416 0.015032373 -0.03505051
0.009984853 -0.06757987 -0.007569471 -0.080099046 0.013963626 -0.024525754 0.025080942 0.060138516
0.024830135 0.01751768 0.056010522 -0.0179361 -0.041982964 -0.01893976 -0.06914005 0.036452115
-0.048185647 -0.037524037 -0.053797215 0.05493632 -0.0073160194 0.025465284 0.041452162 -0.053668167
0.055075005 -0.02196515 0.030779496 0.05127313 0.023172965 -0.04895223 -0.062514775 -0.030548627
0.010302036 -0.055305757 -0.07210405 0.01996799 0.06404521 -0.025318464 0.062447622 -0.042641345
-0.058440782 -0.06608112 0.054188967 0.0130234845 0.029417628 -0.027640013 -0.026021335 0.028385794
-0.068478286 0.013419093 0.008753621 0.052337136 -0.023378622 0.017923191 -0.032163825 0.029949661
0.029667668 -0.020784277 -0.04325191 -0.04175583 0.049928803 0.030029833 0.06268709 0.047949605
-0.023880988 0.051325917 -0.023195881 -0.028526075 0.029835692 -0.05869549 -0.030115662 0.031343702
0.043427825 -0.0038920965 0.03212039 0.00946486 -0.02836517 0.060960487 -0.010390891 -0.023576835
-0.044859204 -0.076094955 -0.017395083 0.00539459 0.002337223 -0.026566857 0.002004512 -0.03498766
-0.07928016 -0.024954917 -0.014156786 0.023343582 -0.022857428 0.020779576 -0.038250886 0.040176876
-0.037103057 0.022825494 -0.03345412 -0.09710535 0.014413175 -0.05870764 0.0016828477 -0.0072982474
0.046114374 0.02644979 0.010591424 -0.08130653 0.022329688 -0.026138391 -0.00087168964 0.028241506
-0.06008898 0.00428199 -0.021170802 0.07179043 0.042625472 0.012816652 -0.025756706 -0.0019353294
0.0013770675 -0.010739418 0.005666472 -0.001965396 0.05050037 -0.039029572 0.04291802 -0.038361214
-0.05420852 -0.072484925 -0.04738701 0.05195709 -0.062426537 -0.0567176 -0.0012223118 -0.029790051
0.014149449 0.039761893 -0.030508338 0.029082177 0.021141764 -0.03154869 -0.015227089 0.039610237
-0.024623454 0.038811654 -0.020703658 -0.0039965757 -0.043816097 0.060017593 -0.037035614 0.052592177
0.020163953 0.052345596 -0.0071171597 0.04504419 -0.0023954408 -0.0032379772 -0.023020148 0.046806343
0.03921084 0.050704587 0.044827502 -0.02433639 0.03798659 -0.049318694 -0.0027091955 -0.021574976
0.029496964 -0.031589024 -0.05086468 0.0013466225 0.0074335956 -0.0001033085 -0.028054662 -0.025590826
-0.053322576 0.059833854 -0.07115634 -0.015113457 0.032843187 0.030616162 -0.022082098 -0.03711115
-0.053049706 0.0035665636 -0.044581436 0.011043686 0.019283991 -0.031017013 -0.0361759 -0.07895829

lin1.bias f4 [80]
00000000: 8159 60bd a3c6 f93c 70bc 51bc 01f4 90bc
00000010: 7237 80bb 9852 553c 8a37 97bc ff2d 8abc
00000020: b991 603d 54d2 64bc c6bd 3f3d 1756 803d
00000030: 1328 5fbd 304a 98bd 0760 2b3d dded 9e3d
00000040: 2737 183d 82cb 3c3d bcba 82bd c952 79bd
00000050: fa13 d7bc b0b0 d9ba b511 2a3d 346a 1abd
00000060: 29c1 943c 1ce2 7c3d 07a4 973c 280d 583d
00000070: 245a 83bc 58f0 373d 46fd fc3b 99b3 123d
00000080: 516c 933c cf10 143c c12c 6e3c 757d 363d
00000090: 5bf1 37bc 5de7 903b f24b 46bd a0a6 123d
000000a0: 0ca0 b93c 63a9 993d 1480 52bd 4a16 963c
000000b0: 39d4 c13c 1457 d03c 71d2 413c 9e17 78bc
000000c0: 4f57 a53c f732 7ebc c5b0 9a3d 4e08 71bd
000000d0: 505b 893c 7969 8c3d e156 49bb c6c2 883d
000000e0: 712f 8b3d dedd 7a3c 5b96 57bd 221d 89bd
000000f0: 6967 b33b 34ec 47bc 789f 36bd e9c4 adbd
00000100: cc20 05bc d72d 5e3d 6087 adbc 3d1b bf3d
00000110: 06ae afbb 42a1 d7bc 2159 b03c 670d 973c
00000120: 6157 753c f3bd 5d3d b9d3 313d b01e 85bb
00000130: 4dd4 4dbc d4fb 4b3d 2592 373d 446a 02bd
-0.054772858 0.030490225 -0.012801275 -0.017694475 -0.0039128596 0.01302018 -0.0184591 -0.016867636
0.054826472 -0.013966162 0.04681184 0.0626642 -0.054481577 -0.07436025 0.041839626 0.077602126
0.037161972 0.046092518 -0.06383273 -0.060869966 -0.026254643 -0.0016608443 0.041520793 -0.03769894
0.018158512 0.061739072 0.018510832 0.05274692 -0.016034193 0.044906944 0.0077206222 0.03581581
0.017995985 0.009037211 0.014537037 0.04455324 -0.011226977 0.004422112 -0.04841227 0.035803437
0.022659324 0.07503011 -0.051391676 0.018321175 0.023660766 0.025432147 0.011829958 -0.0151423495
0.020183234 -0.015515081 0.07553247 -0.05884581 0.016767174 0.06856055 -0.003072195 0.06677775
0.06796158 0.015311686 -0.052633625 -0.0669501 0.005474974 -0.012202311 -0.044585675 -0.08484823
-0.008125495 0.054242935 -0.021182716 0.09331367 -0.0053613214 -0.02632201 0.021526875 0.018439008
0.014974446 0.054136228 0.043414805 -0.004062496 -0.0125628235 0.04980071 0.04481711 -0.031839624

outp.weight f4 [6, 80]
00000000: b5e8 86bc ab83 893d 801a 903b f247 0abe
00000010: 6d9c 17be 32f2 b4bd 1b9d c2bd 71e6 733d
00000020: 53e7 b4bc 76c9 c4bd 44df 253e 94f6 0b3e
00000030: d9e4 7a3c 3ea5 6b3d 744b d53d 25c5 d53d
00000040: c115 b5bd 9789 b9bd a4d9 47bd 9c85 673a
00000050: 4651 c73d a4dc 77bd 6933 1d3e 0d91 01be
00000060: 5ce7 e4bd ac5a b9bd b05a 6ebd e05e 143e
00000070: 46ac f4bd 1947 9a3d 6160 27be 6d32 28be
00000080: ccbd 73bc 6647 843d 187f 9bbc 038a 0f3e
00000090: 1474 71bc 93e2 83bd d45e 7dbd ae1d 173e
000000a0: 3763 7cbd 350e 013e 23d7 88bd c6d6 d1bd
000000b0: 2927 0f3e c5b8 ecbd 773a 1a3e b36c f5bd
000000c0: 112e f1bd eb22 06bd 5ca1 973d efb4 1bbd
000000d0: 407f 113d 39f8 09be 4a0a 34bd b8ef 043e
000000e0: c3c3 963c 32bb 8c3d 28c2 04be 60df a23d
000000f0: 9601 87bd 7d3d 3dbe 30b4 ebbd 51b3 61bc
00000100: 706c 09be 97cb 9f3d f740 c6bc 32be 8e3d
00000110: 1873 b8bd ff8b 1d3d 6672 21bb 6627 e7bd
00000120: 35eb 06be f6ae 003e 97c7 1ebe 6c44 e2bc
00000130: dc7b 333c 3447 44be b06a 013e 57ef 7bbd
00000140: 095f aabd 72d7 0dbe a092 eabd a610 69bd
00000150: d91f c53b b179 b33d dcb1 83bd b931 0abc
00000160: 99ec 7cbd 13d6 aa3d 376a 69bd b580 8d3c
00000170: 0f58 e03d b364 c4bc 4f9e 08be 112a 00be
00000180: 5172 223d b3c6 723d 0922 b9bd 420e 93bd
00000190: be0f 4dbd 9f48 b8bd 2f28 0bbe 8b3b b93d
000001a0: afb8 3f3d 08a1 d43d 06c2 8b3d e6ac febd
000001b0: 9439 f53c e98e 5abd e572 a0bd cace ef3b
000001c0: 2b9f 3d3d 5d56 b7bd 5b92 cf3d b457 00be
000001d0: 9d3e b03c a516 943d 0817 6bbd dad9 823c
000001e0: f535 763d 976a 05be 94f7 97bc 6dc3 6ebc
000001f0: 4e3c 91bd 7c21 7f3d 2ba6 11be 645f 963d
00000200: c0e9 943d d617 833d 8c31 b33b 430e c5bc
00000210: ad7f 5a3d cf50 87bc 9394 ab3d 0da7 42bd
00000220: 6bfd 9fbd 2eb5 11be e74b cbbd d422 e73c
00000230: 2094 ca3c 1f03 143a 45be 4e3d c9b0 9d3d
00000240: 4014 703c 6a41 06be 2493 843d 148c fbbd
00000250: 7d8c df3c 2d40 e1bd ca9b 973c c133 443d
00000260: 2d2d 603d b158 f3bd 5b9d 613d 2ac7 b93d
00000270: 0616 ab3d f920 a2bc 7c01 c3bd 7718 d53d
00000280: f517 e93c ffef c0bc da70 9bbc 990f 293d
00000290: cca2 7a3d 5ef6 833d 3811 533d 35c1 3a3d
000002a0: 6531 30bd 44b3 ce3c fb40 73ba eb4c bdbd
000002b0: 27d3 113d e236 dabc 45e3 e4bd ecf4 8cbd
000002c0: 1e67 4abd 6ac8 033d 03fe f33c 05f3 4b3c
000002d0: f582 b93d c606 393d c049 dfbd 8f62 ec3c
000002e0: 01af 50bd 6046 923d 8462 99bd cd2a 20bb
000002f0: 4c98 0c3d a7e1 12be 16be 993d fa4a 463d
00000300: 5c30 b03d 8fb0 94bd 109a 1a3d 8a03 b5bd
00000310: 1096 69bd 48aa 593c 2133 a5bd e067 683d
00000320: 3a07 593d bf22 9abd 28b9 bb3d b78a 9f3c
00000330: 2323 ccbd bc9b a4bd 016b 0fbe 411d ac3c
00000340: 4c1b a13d 5ab0 9a3d b484 fdbd 08d1 923c
00000350: 43a6 94bd 53b9 303d 59c1 95bd ce59 38bd
00000360: 989a f63c 27a3 f5bd df2a c7bd 1bb7 b33d
00000370: a748 913d 9024 7c3c f0ee 153b afb2 293d
00000380: 2b68 503d ad9e 13be 1868 f23c da6f a9bd
00000390: 8885 4e3d f2ce ddbd ed57 563d 185f db3c
000003a0: 8017 8ebd 354f babb 1179 873d 22a3 94bd
000003b0: 5dc9 e63c adca d33c bd97 fabd 719c b23c
000003c0: f8cc d1bc c783 26bd 0643 69bd 7712 a23d
000003d0: 2dc0 593d 67d2 323d 7724 2dbc 0187 00bc
000003e0: 62ef 703c 59c5 fcb9 7498 43bd 719b e83c
000003f0: bb75 c0bd 8b6d 6a3b 8079 66bd a980 ccbd
-0.016468385 0.06714567 0.0043976903 -0.13504007 -0.14805765 -0.088352576 -0.09502622 0.059545938
-0.02208296 -0.09608738 0.1619845 0.13668281 0.015313351 0.057530634 0.10414782 0.10437993
-0.0884204 -0.09059446 -0.048791543 0.000883186 0.097322986 -0.060513154 0.15351643 -0.12652989
-0.11176941 -0.090504974 -0.058191955 0.14489317 -0.11946921 0.07533092 -0.1634536 -0.16425486
-0.014876794 0.06458931 -0.018981501 0.14017491 -0.014737148 -0.064397 -0.061858013 0.14757416
-0.061618056 0.12603076 -0.06681659 -0.10246043 0.13979782 -0.115586795 0.15061365 -0.11983623
-0.117763646 -0.032748144 0.07403824 -0.03801435 0.035521746 -0.13473596 -0.043955125 0.1298207
0.018403893 0.06871642 -0.1296469 0.07952762 -0.06592099 -0.18480487 -0.115089774 -0.0137756625
-0.13420272 0.078025036 -0.0242009 0.069698706 -0.090063274 0.03846359 -0.0024634837 -0.112868115
-0.13175662 0.12566742 -0.15505825 -0.027620517 0.010954823 -0.19167787 0.12638354 -0.06150755
-0.08318908 -0.13851717 -0.11453748 -0.056900643 0.0060157594 0.08763445 -0.06430408 -0.008434706
-0.061749075 0.08341613 -0.05698606 0.017273286 0.10954296 -0.023973798 -0.1334164 -0.12516047
0.039659802 0.059271526 -0.09039695 -0.07180454 -0.05006384 -0.089982264 -0.13589548 0.0904456
0.046806987 0.10382277 0.068241164 -0.124353215 0.029934682 -0.053358946 -0.078344144 0.0073183523
0.046294373 -0.08952019 0.10135337 -0.12533456 0.021514231 0.072308816 -0.05739501 0.01597302
0.06011005 -0.13028942 -0.018550672 -0.01457296 -0.0709158 0.062287793 -0.14223544 0.07342413
0.07271147 0.06401031 0.005468553 -0.024054652 0.053344417 -0.016518025 0.08377948 -0.047522593
-0.078120075 -0.14229271 -0.099265866 0.02821485 0.024728835 0.0005646217 0.050474424 0.07699735
0.0146532655 -0.13110891 0.06473377 -0.12282577 0.02728867 -0.10998569 0.018506903 0.04790092
0.054730583 -0.11882151 0.055081706 0.09071191 0.0835381 -0.019791113 -0.095217675 0.10405057
0.028453806 -0.023551939 -0.01897471 0.04127464 0.06119041 0.06443475 0.051530093 0.045594413
-0.043015856 0.025231965 -0.0009279397 -0.092431866 0.03560176 -0.026637498 -0.11176161 -0.06882653
-0.049414746 0.03217355 0.029784208 0.012448077 0.09058181 0.045172475 -0.109027386 0.02885559
-0.050948147 0.07142329 -0.074894935 -0.0024439574 0.03432493 -0.14343892 0.07506959 0.048411347
0.08602974 -0.072602384 0.03774458 -0.08838566 -0.057027876 0.013285227 -0.08066393 0.056739688
0.052985407 -0.075261585 0.09166175 0.019475324 -0.09967639 -0.080375165 -0.14005663 0.021010043
0.078665346 0.07553168 -0.12378827 0.01792194 -0.072582744 0.04314549 -0.07312269 -0.04500752
0.030103013 -0.119940095 -0.09724974 0.08775159 0.070939355 0.015389577 0.0022878014 0.04143017
0.050880592 -0.14415999 0.029590651 -0.08273287 0.050420314 -0.10830487 0.052329946 0.026778743
-0.06938076 -0.0056857117 0.066148885 -0.072576776 0.02817219 0.02585348 -0.12235973 0.021803113
-0.025610432 -0.040653016 -0.056948684 0.07913678 0.05316179 0.043657687 -0.010567776 -0.007844687
0.014705511 -0.0004821222 -0.047752813 0.028394433 -0.09397455 0.003577086 -0.056268215 -0.099854775

outp.bias f4 [6]
00000000: cc28 693d 455e 8b3d 3777 253d 7631 36bd
00000010: 63bb 833b d987 6d3d
0.056923673 0.0680509 0.040396895 -0.044480763 0.004020141 0.057990883
