results/decimation/decimation.pth (torch, 113845 bytes, 10 tensors)

con0.weight f4 [10, 1, 3]
00000000: 751f f1be 2d16 b6bd 67a2 0fbf dcd7 53bf
00000010: 84e5 a63d b885 62bf 8d27 1dbf 311c 7dbe
00000020: e1d9 58bf 3fde 83bd 473f 123f 0da6 8abd
00000030: dc8c a03e 7211 39bf 2c5a 03bf 9712 c33e
00000040: 6c28 38bf 0051 733f eb3b 7bbf 655f dcbe
00000050: 422b 28bf 9ebb 12be 2be7 9cbe 52d4 e5bc
00000060: c0a9 e83e d2cf f63e 6a7f 7fbf 3d50 c3be
00000070: 4483 04bf acc4 aabc
-0.47094312 -0.088909484 -0.5610718 -0.8275125 0.081492454 -0.8848529 -0.61388475 -0.24717785
-0.84707457 -0.064388745 0.57127804 -0.06769953 0.31357467 -0.72292244 -0.51309466 0.3810012
-0.7193668 0.9504547 -0.981383 -0.4304153 -0.65691006 -0.14329383 -0.30645117 -0.028055344
0.4544201 0.4820543 -0.99803793 -0.38147154 -0.51762795 -0.020845734

con0.bias f4 [10]
00000000: b13a 06bf 17ce 06bd 022b bb3e 0460 c5be
00000010: 6ed1 0bbd 70de ee3e e6e5 d83d fad9 c8be
00000020: f0c6 173f 1a8b f9be
-0.52433306 -0.032911386 0.3655625 -0.38549817 -0.034135275 0.4665408 0.10590725 -0.39228803
0.5928793 -0.4873894

con1.weight f4 [10, 10, 5, 2]
00000000: 172c 7a3d 90aa 16bd fa82 b4bd bfd5 c33d
00000010: 6071 2ebd 00f5 733c 002f b7bb 1ac5 9a3c
00000020: 4097 023c 5081 503d 6db4 743d 32f1 a1bd
00000030: 185a c93d a506 b5bc 8823 25bd 57ce f0bc
00000040: af4e afbd f1c5 1cbd 80e3 893b aeaa 733d
00000050: d885 adbd 7d53 d2bd 4d40 b1bd c191 74bd
00000060: 6a6a 83bd 660b 16bd e02d de3c 8bb5 533d
00000070: a355 55bb 2c54 bcbd 531c 2f3d c00f ba3c
00000080: bb8a b7bd cd38 113d 1fbe bcbd cdb9 9cbc
00000090: 5780 89bd c712 423d 35f9 803d 7aa1 13bd
000000a0: 66a6 ddbb 4a3c 43bd d969 b4bd 85c1 39bd
000000b0: 18dc 023d 0374 343d c8fa b3bd 5808 b7bd
000000c0: c7a0 8a3d c370 9dbc 396a ecbd b474 95bd
000000d0: f2cd 133b f445 a7bd 6b39 6fbd ddd4 30bd
000000e0: 3fd0 d73c c24f 56bd 8270 b6bb fc64 c7bd
000000f0: b079 57bd 66f2 6bbd b326 a23b 0c82 c23c
00000100: 56f0 d2bd a888 1b3d 4c53 33bd 3071 613d
00000110: e463 f9bc bd1e 23bd 8087 57bc 83e9 943d
00000120: 8283 913d d329 413d fae9 9ebc cd7c 4b3c
00000130: c0ee 4b3c 48cc a53d cd08 c43c 0a9b 493d
00000140: e5dd a63d 3ca3 7b3d f879 bdbd 6556 473c
00000150: eca5 f63c 15cb 92bd ac37 22bc d0bd 23bc
00000160: 653c e1bb fe86 943d 6a23 4ebd ddfa c83d
00000170: a8b5 c9bd 47d1 b33d fa96 533d 402f ee3c
00000180: 9aa5 91bc 2807 b9bd 0d48 d6bc 006d 253b
00000190: a31e 81bd d512 acbd 27ea e0bc 3f72 9ebd
000001a0: 00af 063d a722 eabc 9b99 983d 00d6 e63b
000001b0: 176e c1bd 6b69 893d 2e74 233e 5ed2 1f3e
000001c0: 413d 8dbe 3bb3 103e 2b4b 8bbe bdba 2f3d
000001d0: a635 18be 7cc7 24be b46d b5be 9f49 d8bd
000001e0: 3aa4 1fbe da2d 9d3e b2e3 0ebe e911 353d
000001f0: 90dd aabd 15d0 b33d 3625 173d aed1 2bbe
00000200: 463f 29be 5ea3 463b b378 a73d d829 86bd
00000210: 5375 a13d f8f3 a7bd 33fe bd3d 9f5a c53d
00000220: 9a50 43bb c778 fdbc c0d5 86bd 4a5d 50bd
00000230: 7cb7 803d 9f18 b23d cbaf 3d3c a4c2 493e
00000240: 3342 75be 1ca8 57be 6c12 243e 735b 86bd
00000250: b1e3 82bc 447a b8bd 9f62 513d 6f60 cabd
00000260: 3ef4 82bc 0d6a d23d 0e72 dabd 69ab 243e
00000270: 42ab 033e 2247 583d 0032 8d3e e394 cdbd
00000280: c2fe 0a3d 6a68 0d3e 8af7 05be 675b 853e
00000290: 66e0 71be 26e5 d2bc 058b e2bd 541d 97be
000002a0: 43a7 dd3c 902f 2fbe 0f4c a33d 276c 52bc
000002b0: 4d0e 433c 6dd1 0ebd 0aa9 8a3d 057d c5bd
000002c0: 6deb 86bd 4070 fabc 1fa2 c63d 406c 80bc
000002d0: bb12 a83b 1cfd f03c c9a1 b73d f821 e73a
000002e0: 51da f23d d028 dabd bc44 5e3c af14 cbbd
000002f0: a954 58be 3d86 9b3d 1a6b 533d 9ab9 773a
00000300: 1353 3abd 7ae5 e6bc 2383 adbd 3338 2abb
00000310: 8f9f 9d3d ebc4 cbbd c7e1 db3c f09e 9dbd
00000320: 3fd0 863d 9da6 953d 3f41 80bd f522 863d
00000330: ead4 3c3d 3d0f 74bd 5a21 b0bd b717 5e3d
00000340: ad41 6bbd a286 92bd bb9d 61be 49fc 16be
00000350: a135 293b 004b bdbc 556c 4c3e f4ac 543e
00000360: d684 133e e7eb 8bbe f839 87bd a066 57be
00000370: cb67 babc 1eba dcbc adbf 803d 1273 febd
00000380: f32d 1cbd e3dc e43c 8255 333e 48d4 053e
00000390: 0931 173d 937e c0be 4d9e 973d 105a 1a3d
000003a0: 9a99 0d38 e7b8 8c3d 1206 a6bd 7df9 123d
000003b0: 9a65 0a3d fb79 a0bd 7af3 98bc daa0 ab3c
000003c0: 1cd3 593d aac6 fbbd 31ec 133d 69c4 d6bd
000003d0: 9895 f43d 6001 b33c 8a6c 1fbc c94b fd3d
000003e0: c5e8 373e 2194 17be ee7a 0e3e cb85 983d
000003f0: 942a af3d a3b2 173e de35 4e3e 262d 193e
0.061077204 -0.036783755 -0.08814044 0.09562253 -0.04258859 0.0148899555 -0.0055903196 0.018892813
0.007970631 0.050904572 0.05974238 -0.079073325 0.09831637 -0.022097895 -0.04031709 -0.029395266
-0.085599296 -0.03827471 0.0042080283 0.059488945 -0.08472794 -0.102698304 -0.086548425 -0.059709314
-0.06416781 -0.036631964 0.027121484 0.051686805 -0.0032552264 -0.09195742 0.04275162 0.022712588
-0.089620076 0.03545456 -0.0921595 -0.019131565 -0.06713932 0.04738119 0.062975325 -0.036042668
-0.006764221 -0.047664918 -0.08809251 -0.04535057 0.03194818 0.04405595 -0.08788067 -0.08937138
0.06768947 -0.019218808 -0.11543698 -0.0729765 0.0022553173 -0.081676394 -0.058404367 -0.043171752
0.026344417 -0.052322157 -0.005567611 -0.09736058 -0.052606285 -0.057604216 0.004948461 0.023743652
-0.10299747 0.037972122 -0.04378061 0.055039585 -0.03044314 -0.039824236 -0.013154864 0.07271101
0.07105161 0.047159027 -0.019398678 0.012419892 0.012447059 0.08095604 0.023929978 0.049220122
0.08147792 0.06143497 -0.09251779 0.012166594 0.030108415 -0.07167641 -0.0099009685 -0.009993985
-0.0068736547 0.0725231 -0.050326742 0.098134734 -0.09849101 0.08780151 0.051657654 0.029075265
-0.01777916 -0.09034568 -0.026157403 0.002524197 -0.063046716 -0.084020294 -0.027455403 -0.077366345
0.032881737 -0.028580977 0.07451173 0.0070445538 -0.09444826 0.0670956 0.15962288 0.15607592
-0.27585796 0.14130871 -0.27205786 0.042902697 -0.14864215 -0.16091722 -0.3543526 -0.10560917
-0.15589991 0.30699044 -0.13954046 0.044206534 -0.08343041 0.08779923 0.03690072 -0.16779205
-0.16528043 0.0030309777 0.081773184 -0.0655095 0.07883706 -0.0820083 0.09277 0.09636425
-0.002980268 -0.03094138 -0.06583738 -0.050870217 0.06284997 0.08696102 0.011577557 0.19703156
-0.23951034 -0.21060222 0.16022652 -0.06560411 -0.015977712 -0.09007695 0.051119443 -0.098816745
-0.015985604 0.10274134 -0.106662855 0.16081013 0.12858298 0.052802213 0.2757721 -0.100381635
0.033934362 0.13809362 -0.1308271 0.26046297 -0.23620757 -0.025744032 -0.11061672 -0.29514563
0.027057296 -0.17107987 0.079734914 -0.012843168 0.011905265 -0.034867693 0.06770523 -0.09642986
-0.06587873 -0.030571103 0.09698891 -0.015676618 0.005129186 0.029417567 0.08966405 0.0017634025
0.11858047 -0.106523156 0.013566192 -0.099160545 -0.21126045 0.07593963 0.051615812 0.0009449959
-0.045489382 -0.028185595 -0.08472278 -0.0025973439 0.07696449 -0.099496685 0.026841057 -0.076963305
0.065826885 0.073071696 -0.06262445 0.06549636 0.04610149 -0.059584845 -0.08600111 0.054221835
-0.05743568 -0.071545854 -0.22032826 -0.14744677 0.0025819319 -0.023107052 0.199632 0.20769101
0.14406142 -0.27328417 -0.066028535 -0.21035242 -0.02275457 -0.026944216 0.06286559 -0.12424292
-0.038129758 0.027937358 0.17513087 0.1306926 0.036911998 -0.37596568 0.0740324 0.037683547
3.3760072e-05 0.06871205 -0.081066266 0.03588246 0.0337883 -0.07835766 -0.018670786 0.020950723
0.053179845 -0.122937515 0.03611392 -0.10486681 0.11942595 0.021851242 -0.009730468 0.123679705
0.17959888 -0.148026 0.13914081 0.07447394 0.08553043 0.14814238 0.20137736 0.14958629

con1.bias f4 [10]
00000000: 615a 793c 59bb df3d 3874 0a3d 37fa ba3b
00000010: 0a33 abbd 7cca 2dbd 1e2f 553d 6313 9c3d
00000020: 01de 6abd 8fb9 81bd
0.015219302 0.109244056 0.03380224 0.0057060975 -0.08359344 -0.042429432 0.052046888 0.07620885
-0.057340626 -0.063342206

lin0.weight f4 [256, 20]
00000000: 208d 8abc 7d31 52be f998 873d 0d0e 7d3e
00000010: 722b cb3d 2b65 3fbd 90f6 c4bd f75f 9b3d
00000020: 57ea bfbd 01cc 173e 8d5e 873d 7138 233e
00000030: 0099 063e 367a 92be 8d4b 0e3e 3c0b 71bc
00000040: 4442 39bd 010a c63e 6704 dcbd 402e 5b3e
00000050: b2b3 c73d 03a3 4f3e 4382 a63d df8d 09be
00000060: ad89 05bd 024f 0fbe b91e 17be 3567 cebd
00000070: c37a 29be 8453 5c3e 1996 223e a463 f93d
00000080: 5386 e03d cb3d 95bd 03f1 f0bd f67f 403e
00000090: 541b 0d3e 14b2 e6bd 4882 9b3b 517b 72bd
000000a0: 57c1 e7bd 88ea 263e 3237 d4be 243b 7bbe
000000b0: 07b9 dbbd d65b dc3d e679 1fbe 526d 13bd
000000c0: 15a0 1dbc ee08 2dbe 0e8a 483e 3f4a a0bb
000000d0: c793 4bbe 0d6d ca3e 6e5e 35be ae6e 083e
000000e0: 9ede e43d c2c6 dcbe e838 1dbe 5212 1f3e
000000f0: 0fa1 243e 01ba c23a bf0c 2abe 1d46 073e
00000100: 1d28 e6bc d085 c63d 0f4a 84bd 971a 5abe
00000110: 46b6 42be 93f2 0cbe 7310 2c3e e7b7 d5bd
00000120: 6a9c 8c3c 891f 513e 5a13 19bd d577 8bbc
00000130: e500 abbe 12cc 803e 3964 703e b850 1abe
00000140: 5f99 6bbe f9ec 0cbe 5faf 3f3e 6a60 0e3e
00000150: 721c 03be d588 38bd 0f62 5bbe 1a6f 8f3c
00000160: ab87 25bd cf5f d3bd 3b06 ed3d 97e7 f93d
00000170: 6a3d 3d3e 6616 38be a40f 473e 5e73 e3bd
00000180: b81f 48be 58a9 a43e e71b a33c 4e6b 6f3e
00000190: 0cea 983d b1c0 26bc b52f 9f3e d7bb e1be
000001a0: 3301 f1bc 42f2 27be 355f f7bd 2377 33be
000001b0: 1e3a 9cbd 1494 c1bd 2bb2 08be a368 3bbc
000001c0: 5d60 143e b159 5f3c cba0 473d 0e18 453e
000001d0: ac18 fdbd 187d 0cbe 9929 883d ef24 163e
000001e0: f9a9 503e d913 67bd c97c a7bc cbae 02be
000001f0: d89c 94be a5ed 7c3d 6b51 45be 0fe1 6d3e
00000200: ecb4 25bd a421 113e 46ff 37bd 1993 24b5
00000210: 7735 883d 9f06 a1bd 1fea 463e 3782 603e
00000220: 91d0 073e adb6 853e 6450 e9bd a32b b0bc
00000230: b01d 2bbd 5720 75bd 359e dcbd e60a c53e
00000240: c406 5d3e b78c a7be 8f0f 543e 4f9c c7bc
00000250: 8c33 943d 2216 8739 ff57 623e 83a0 0fbe
00000260: 5b8d 7a3e a674 f93c bce8 b33b fb6a 7abe
00000270: 4cce 33bd 2c32 063d 4212 823e a487 d6bd
00000280: f107 fcbd 8a68 523c 6d25 32be 27d4 963c
00000290: 3280 c4bd dccd 0a3e 0a47 ee3b bb5d d03c
000002a0: 01d1 15be d5c0 603e 48bb 9ebc 9922 43be
000002b0: 7d9a cbbe 31de 303e 8550 0a3d eb3e 0a3e
000002c0: e4fc 233e ef45 7cbe 4c80 3abe 426c b639
000002d0: 83a2 5d3e d1e3 0ebe 70c3 00be 28d4 3f3e
000002e0: 7521 843e 7a9a e9bd aed4 99bd 188c 8b3d
000002f0: abb5 8abd 45fe 1d3e 5fc9 283e 3f64 1a3e
00000300: 70fe e03d 3465 07be db72 5fbe 866b c4be
00000310: b3d4 f93d 5ae5 85be fa34 8abd 02e8 963d
00000320: 4d74 423e 96d7 c3bd f79d 6bbe bdca a03e
00000330: 4fb8 6b3e b7c1 64be f03b 183e 7ab7 1d3e
00000340: 2f51 283e e4fa 483d 595a d3bc dea1 16be
00000350: 3e6c 963d 902d 44be d709 c5bd 05df 98be
00000360: dc47 b93e e08a a9bc 3213 af3e 7cea 4dbe
00000370: 202f 3cbe 9554 df3d 0a16 ccbe 181e 5bbe
00000380: 82ff e5bd 06a3 aebd 1db2 63be d5f4 863d
00000390: bc33 0b3e 0a47 0b3e 0871 47be 8a11 5f3e
000003a0: a159 42be 6fc1 db3e 1766 a1be 6ea7 333d
000003b0: 7df6 8ebd e02b 27be a686 873e a3dd e93d
000003c0: 26d7 febb 8f56 943d 5821 a5bc 7508 fdbd
000003d0: 50c4 083e 6dff da3d d3ca d23d d3f1 c4bd
000003e0: 7c1c 5f3e 3fb4 13be f78f 08bc 0ab4 37be
000003f0: 7b9d 3cbe 2ac7 463e 59e1 4dbd 7b42 5e3c
-0.016912997 -0.20526691 0.06620974 0.24712391 0.09920396 -0.04672734 -0.096173406 0.07586663
-0.09370869 0.14823915 0.06609831 0.159395 0.13144302 -0.28608865 0.13896008 -0.014712151
-0.04522921 0.38679507 -0.10743027 0.21404362 0.09751071 0.20277028 0.08130314 -0.13433026
-0.032602 -0.13994983 -0.14757814 -0.10078279 -0.16550736 0.21516234 0.1587757 0.12177208
0.1096312 -0.07287177 -0.11764719 0.18798813 0.13779956 -0.112644345 0.0047457553 -0.059199635
-0.113161735 0.16300404 -0.4144836 -0.24534279 -0.107286505 0.10759704 -0.15573844 -0.035992928
-0.009620686 -0.16897938 0.19583914 -0.0048916633 -0.19880591 0.39536324 -0.17711803 0.13323471
0.11175273 -0.4312039 -0.1535374 0.15534332 0.16077064 0.0014856459 -0.16606425 0.1321034
-0.0280953 0.096934915 -0.06459438 -0.21299206 -0.19014844 -0.1376441 0.1680315 -0.10435467
0.017164428 0.20422186 -0.03737197 -0.017024914 -0.3339912 0.25155693 0.23475732 -0.15069854
-0.23007725 -0.13762273 0.18719243 0.13903967 -0.1280382 -0.04505237 -0.21424125 0.017509032
-0.040412586 -0.103210084 0.11573454 0.122023754 0.18480459 -0.17977294 0.1943956 -0.11105989
-0.1954335 0.3216045 0.019910766 0.23380777 0.07466516 -0.010177777 0.31091085 -0.44088623
-0.029419517 -0.16401008 -0.12078706 -0.17525916 -0.076282725 -0.09452072 -0.13349216 -0.011438522
0.14489885 0.013632224 0.04873733 0.19247457 -0.123582214 -0.13719594 0.06648559 0.14662527
0.2037734 -0.056415413 -0.020445244 -0.1276199 -0.29025912 0.061750073 -0.1926934 0.23230384
-0.040455744 0.14172989 -0.044921182 -6.1308816e-07 0.066508226 -0.07862591 0.19425248 0.21924673
0.13263156 0.26115933 -0.113922864 -0.021505183 -0.04177636 -0.059845295 -0.10772363 0.38484877
0.21584612 -0.32724544 0.2070906 -0.024366526 0.07236394 0.00025765697 0.2210388 -0.14026074
0.24467985 0.03045113 0.0054903906 -0.24454872 -0.043897912 0.03276269 0.25404555 -0.1047509
-0.12306202 0.012842307 -0.1739709 0.018411709 -0.09594764 0.13555092 0.007271652 0.02543532
-0.1463051 0.2194856 -0.019376412 -0.19056167 -0.39766303 0.1727226 0.033768196 0.13500564
0.16014439 -0.24636053 -0.18213004 0.00034794403 0.21644025 -0.13954093 -0.12574553 0.18733275
0.25806776 -0.11406417 -0.075112686 0.0681383 -0.06772932 0.15429027 0.16483067 0.15077303
0.1098603 -0.132222 -0.21821158 -0.38363284 0.12198772 -0.26151544 -0.06748386 0.07368471
0.18989678 -0.09562604 -0.23009478 0.31404677 0.23019527 -0.22339521 0.14866614 0.15402022
0.16437219 0.049067393 -0.025799917 -0.14710185 0.07344864 -0.19158006 -0.096210174 -0.2985765
0.36187637 -0.020696104 0.34194332 -0.2010898 -0.18377352 0.109048046 -0.39860564 -0.21398199
-0.11230375 -0.08527188 -0.22235914 0.06589667 0.13593954 0.13601318 -0.19476712 0.21784034
-0.18979503 0.42921016 -0.315232 0.043860845 -0.06980608 -0.1632533 0.26469916 0.11419227
-0.0077771125 0.07243072 -0.020157501 -0.12355129 0.13356137 0.1069325 0.10292592 -0.09616437
0.2178821 -0.14424227 -0.008335105 -0.17939773 -0.18419449 0.19411913 -0.050263736 0.013565655

lin0.bias f4 [256]
00000000: 0593 a4bd d082 2ebe 1534 a13d f8ea 79be
00000010: d62e 2a3b f17c 183e 1b7f 05be b3a1 60be
00000020: bd42 d93d ca26 a2bc df34 54bc 5948 d83d
00000030: 9af4 e73d 9997 8f3b 8b8b 47be 1f03 443e
00000040: 5bab 953d ef13 d1bd 27eb d5bd 35e7 fa3d
00000050: 2fd9 6b3d 0345 83be 8be2 26bb 88bb c7bd
00000060: 3434 2ebe 2101 173e bcbc 84bd 7fd4 9c3d
00000070: a857 0ebe 6970 fcbd 49bd 6ebd 5791 253e
00000080: 77d4 433d 009b b0bd b7bb 523e a8ab 8abe
00000090: 4c51 ad3d 4612 d1bd e736 183e 242c 28be
000000a0: f6d8 ba3d 46b3 3ebd d17c 013e ac3b e6bd
000000b0: ae65 47bd 8e3c 51be c619 09be 6bde 3bbe
000000c0: 40f3 a2bd 6c3f 373d f242 8ebb eec6 4dbe
000000d0: ac13 473e fae9 553c 0178 46be a55c d3bd
000000e0: 34b8 e23d f19c e4bc 46d7 333e 667b c8bd
000000f0: 02e0 e53d a350 f2bd 2d78 cdbd 5bd3 9cbe
00000100: 5501 02be d46e 353e 424f 063e 53ec 15be
00000110: de2b 613e d0e5 353d 8123 37be 5ccb 473d
00000120: fade 0fbe 26f9 03be 4b26 413d 4ca4 8f3c
00000130: 5c3a 863e 4cb4 a53d 2430 45be 7345 5fbd
00000140: 7f2e 23be d9be 57bd baf5 833d d62f f9bc
00000150: 79ef b5bd 6264 37be 36f2 37be 1f78 743d
00000160: 91bd 003e 45b0 553c c3e3 09bd be75 27be
00000170: 15a2 643c c11a ebbc ccbd eabc 3dd6 9dbd
00000180: 7c05 fd3d 9bc1 cdbc 2386 38be 37f2 25be
00000190: 5dae 08be cb58 1abe 08bd bfbb 6fc0 2d3d
000001a0: 45dd 693d 9625 b13c 74e8 553d 0d9a 15be
000001b0: f7fa 873e 07f4 c03d 61ce e8bd ae55 163c
000001c0: 3d48 2abe 66bb 4f3b 5899 49bd af82 0c3e
000001d0: 8a60 37be d2b8 683e 7d29 60be 1a68 f1bd
000001e0: d1d7 93bd 63fb 24be ebb0 f53d 54e3 a9bc
000001f0: ca00 9bbd 0596 823e 0149 65be 7e21 53bd
00000200: f1a2 c13c b724 f1bb c3a5 86be 5f5e 2b3d
00000210: 4e84 6a3d 33d1 81bd 050f 96bd 8f5e a63d
00000220: 5565 03be b105 68bd 8bc5 56bc 611d 1f3e
00000230: 92a2 763d 0916 00be d7bb 533e a12c 44bd
00000240: f348 333e bcf6 253e 1c98 443e 5eab 66be
00000250: 7718 17be 4a9c 3dbe c32b 473e ce3f bd3b
00000260: 9f34 883d ce0f 1a3c 1198 2b3b 6aef 07be
00000270: 84a4 28be 78f0 27be 533f 1dbe 9a16 bf3d
00000280: 56ee 88bd 1673 1dbd edce a03d 4d9b 1fbe
00000290: 145a f8bd e7c9 fc3c 9f7f 1dbd e317 d33d
000002a0: 9b68 403e 7098 263e ac13 21be 4de3 923d
000002b0: 3e21 533b 3ce0 cdbd 6b65 fa3d 8396 44be
000002c0: b6fd 9abc 3543 a1bc 036d 6c3e abf0 013d
000002d0: 5d32 5abe 9de6 f83b 65a8 bb3d 8f2b b2bd
000002e0: d6bd 34be 72d6 58be 9100 15bd b803 3a3e
000002f0: b18f ed3d f1bb 05bd 64a3 7ebe 9421 f4bd
00000300: b001 883c cab0 543e 66c1 e73d a197 2abe
00000310: 203d cb3d 97f3 7bbd 6aaa ef3d 4eeb a83d
00000320: 60cb e63d 5ea3 e43d 5c11 0bbe 2559 eabd
00000330: 8905 203d 7587 b4bd e302 e23d c2f7 79be
00000340: cc6d 04be 350a 033e a570 e4bd 27d4 1abe
00000350: 5084 e43d 627f 0a3e aee1 aa3b aa59 c63c
00000360: a3ee 013e 8a27 3b3e ee54 32bd 077a 293d
00000370: 48ce babb f484 3abe f9d9 c1bd 329c b63d
00000380: dfce 82be d374 d63d c077 36be 7e8d a93d
00000390: f5f2 c7bd 205f 0d3e 8abe 34bd 2a0c 833e
000003a0: b208 b73c 3547 833e d587 463c 1466 3a3e
000003b0: 91a9 d5bd 447b 7d3d 47cb 183e 7288 12bd
000003c0: 3a1e 5f3d e501 edbd f7d6 3cbe 5a94 133e
000003d0: fc92 e13d 5bd0 cdbc 2f10 0ebe 4738 8a3d
000003e0: 6830 1a3e c782 adbb dbd0 703e 1b70 60bd
000003f0: 1035 2bbb fef5 95bd cb83 91bc 72a2 35be
-0.08035854 -0.17042089 0.07871262 -0.2440604 0.0025967858 0.14891411 -0.13036768 -0.21936683
0.106084324 -0.019793887 -0.012952059 0.10560674 0.11325951 0.0043820855 -0.19486825 0.19141816
0.07308074 -0.1020888 -0.104452424 0.122511305 0.05758017 -0.2563859 -0.002546462 -0.097525656
-0.17012101 0.14746524 -0.06481311 0.07657718 -0.13900626 -0.12326128 -0.058285985 0.16168724
0.047810044 -0.08623314 0.2057942 -0.27084088 0.08462772 -0.102085635 0.14864694 -0.16423088
0.09123413 -0.046557687 0.1264527 -0.1124185 -0.048680954 -0.20433256 -0.13388738 -0.18346564
-0.079565525 0.04473822 -0.0043414766 -0.20095417 0.19441098 0.013056273 -0.19381715 -0.10320405
0.1107029 -0.027906867 0.17562589 -0.097891614 0.11224367 -0.118317865 -0.10032687 -0.3063
-0.1269582 0.17718059 0.13116172 -0.14640932 0.2198939 0.04440862 -0.17884637 0.048777923
-0.14049903 -0.12888011 0.04715566 0.017534398 0.262164 0.080910295 -0.19256645 -0.05450959
-0.15935706 -0.05267224 0.06443353 -0.030418318 -0.088835664 -0.17909387 -0.1796349 0.05968487
0.12572314 0.013042514 -0.033664476 -0.16353509 0.013954659 -0.02869928 -0.028654955 -0.07706878
0.12354562 -0.025116732 -0.18019919 -0.16205679 -0.13347764 -0.15072934 -0.0058513917 0.042419847
0.057095785 0.021624368 0.052223638 -0.14609547 0.26558658 0.094215445 -0.11367489 0.009175701
-0.16629119 0.0031697392 -0.049218506 0.13721727 -0.1790792 0.22726753 -0.21890827 -0.11787434
-0.07218898 -0.16111521 0.11996635 -0.020738281 -0.0756851 0.2550508 -0.2239113 -0.051545613
0.023637267 -0.007359113 -0.2629834 0.041838046 0.05725508 -0.0633873 -0.073270835 0.08123504
-0.12831624 -0.056646053 -0.013108621 0.15538551 0.060213633 -0.12508406 0.20677124 -0.047894124
0.17508297 0.16207403 0.1919865 -0.22526309 -0.14755426 -0.18516651 0.19450288 0.0057754284
0.06650662 0.009403182 0.0026183168 -0.13274923 -0.16469008 -0.16400325 -0.15356188 0.09330483
-0.06686084 -0.038439833 0.07851968 -0.15586586 -0.12126556 0.030857993 -0.038451787 0.103072904
0.18789904 0.16269088 -0.1573016 0.071722604 0.0032215859 -0.10052535 0.12226375 -0.1919804
-0.018919807 -0.019685367 0.2308846 0.03172366 -0.21308275 0.0075958506 0.09162978 -0.086997144
-0.17650542 -0.21175554 -0.036377493 0.18165481 0.115996726 -0.032649938 -0.24867016 -0.11920467
0.016602367 0.20770565 0.11316185 -0.16659404 0.09923768 -0.061511602 0.11702426 0.08248006
0.112692595 0.11163972 -0.13580841 -0.11442784 0.03906778 -0.08814899 0.11035707 -0.24410918
-0.12932509 0.12796862 -0.11154298 -0.15119992 0.11158049 0.13525155 0.0052148914 0.024212677
0.12688689 0.18276802 -0.043538027 0.04137614 -0.00570086 -0.1821478 -0.09465403 0.08916511
-0.25548455 0.10471501 -0.17819118 0.082789406 -0.09763137 0.13805819 -0.044127025 0.25595218
0.022343013 0.25640264 0.012117346 0.18203002 -0.10432733 0.061885133 0.14921294 -0.035774656
0.054472186 -0.11572627 -0.18441378 0.1441206 0.11014363 -0.025123766 -0.13873361 0.06749015
0.15057528 -0.005295131 0.23517172 -0.054794412 -0.0026124157 -0.0732231 -0.01776304 -0.17737749

lin1.weight f4 [80, 256]
00000000: 7c22 b53d e030 8cbc b0ac a2ba 1a14 0ebd
00000010: 1008 a13d 4bdf 023d ea09 28be 2c54 fcbd
00000020: 04dc 59bd e267 f4bd c9b5 66bd d4e3 73be
00000030: 509a 243d edd2 9a3e 968a da3c d3ee 733d
00000040: 5b45 46be 0fb6 aa3e 8475 18be eca7 26bd
00000050: 2eae 7d3c 9114 8f3e eb41 65be b712 85bd
00000060: 3c9f 27be cb95 4bbd b968 693d fe02 393d
00000070: 86a5 a9bd 1f99 7bbd 0653 93bd 6586 9e3d
00000080: 3c39 933e 5713 623d b7f0 493b 52b5 b3bd
00000090: 4762 e03d 48d1 dd3e f163 9d3d cd5e 82bb
000000a0: c8cb 7d3c d69f b63e 962d c8bd 7855 dc3b
000000b0: be58 e3bb d013 9fbb ae0e 2cbe e00a 893b
000000c0: dac6 82be 1e2c 01be b9f0 50bc cc8a 21bd
000000d0: 21bc 77bd b5c5 1dbd 1aa6 adbc 1262 5dbd
000000e0: 8758 ae3d 445e 8fbc 53be a3bb b5a7 17bd
000000f0: d12f a7bd 01fd 9d3d 59d7 023e 6e06 f23e
00000100: 8d2f 6b3d d547 b4bb 5cc4 6b3d ec5b 6abd
00000110: f654 033d 91ff cdbd c6cc f33e 4adb 2ebe
00000120: 629f 31be 4c6b 9abc cc4a a6bd 413a 193e
00000130: 68f4 ff3c d08c 893e 6277 6d3d fbdb 333e
00000140: ed58 093c 7263 4dbd 452b fd3c 0a5e 2fbd
00000150: 0bae 88bd dcfd 143e 4301 84bd 3ead 903d
00000160: c594 483e 96ee 82bd cc79 b5bb 5832 013c
00000170: db23 88bc c0a0 7ebe 2400 18bd 211c c23c
00000180: e02d e83d a13b 2b3c 991f 2d3e 50dd 6fbd
00000190: b88a eb3c 1914 493c f923 abbd a737 31bd
000001a0: 9e69 923d 3069 e037 ed16 4ebd 42b1 853e
000001b0: bece 27bd a442 dd3d 2e83 4cbc cdd4 80bc
000001c0: c8ea 00bd 50ac 49bc 8ab8 723d f7b9 923e
000001d0: 7918 58bd 17ff 223d 2f70 ef3c f368 db3c
000001e0: eca9 583d 22de 6c3e 6b6b ff3d dd54 10be
000001f0: b9a6 f3bd 2039 c63c 5331 023d acdc a8bd
00000200: 694b 1abc 407c db3c c5e2 cd3d d7fa 8f3d
00000210: ba78 573b c961 c4bc 0065 5b3d 78d6 c7bd
00000220: c202 f8bd fe5e 333d 1d58 d83d f9c3 fabc
00000230: 45b4 e33c ed76 c93e 48dc 583e 34fe a03c
00000240: 39af 403c 0bcb 84bc b33e 273b 518b 9abc
00000250: bee4 263e dc79 123d 598a 103d c133 bebd
00000260: 6302 c13b bb36 6e3d 6c26 0dbe d835 edbd
00000270: b993 2ebe b090 ad3b 2670 043d c7cf 023e
00000280: d61a 103e 9837 d63d 1c40 963d c8e8 563c
00000290: 8025 143c c2f7 bebd 8e3e 3dbe 4083 e9bd
000002a0: 69e0 5e3c 69e0 223d dc2a c5bc 837d 34bd
000002b0: 2a06 043e e3f3 78be d7ad 55bd 1097 08bd
000002c0: e7cc 5a3d 317a 033d f8af 61be 2cc7 d93c
000002d0: c0e8 6a3d 0f25 203d 8d32 0ebd 3534 99bd
000002e0: eac7 73bd 40ec ac3c eccb 143d 4f2e af3d
000002f0: 3b9b fd3e 7afb 50be 099b e7bb 0420 2b3e
00000300: 78a3 003e 94bd 953e cfdb 8e3e 4db5 c33e
00000310: bf17 8b3c 4f3e 83bd a5ec 013e d078 e6bd
00000320: 12db cfbc 6e90 123d 7448 08bd 16eb 1f3e
00000330: 36e7 b63d 75ea 5f3d 9f64 7dbd 84d5 c93e
00000340: cc41 a9bd 102c 683d 7262 e23d cb35 78bd
00000350: 0435 bf3d 036e 9ebd c7a0 373d 539a 6f3b
00000360: df21 083e 0050 9c3d 54aa 96bc 7a74 0e3e
00000370: b548 fe3c d2d4 6dbe ef9e fe3d 3ffa 3a3d
00000380: 9f33 013e c238 ad3d 7de2 6d3e cf00 9ebd
00000390: d756 e4bd 99d9 4a3d 7bc2 943c 38c0 a03c
000003a0: 20b6 013e a964 b0bd 5dc0 adbb 21fc 2e3d
000003b0: 152e c43e 2156 47bd f55b 923d 4dff 9a3e
000003c0: 2f28 973d 7fa5 9a3c 3bc9 f8bb 5a2b 33be
000003d0: 9b33 903c 68a2 2bbc 4658 1f3d bdd1 963d
000003e0: c8e2 553d 469c 243d e918 f03d 1644 85be
000003f0: a9fb 813c e7a5 4a3c 0695 a93b 408b 2bbc
0.08844468 -0.01711315 -0.0012411084 -0.03468714 0.07862866 0.03195123 -0.16410032 -0.12320742
-0.05318834 -0.119338766 -0.056325708 -0.23817378 0.040186226 0.3023905 0.026677411 0.059553932
-0.19362395 0.33342025 -0.14888579 -0.040687487 0.015483422 0.27945378 -0.22388427 -0.0649771
-0.16369337 -0.0497034 0.056984637 0.04516887 -0.08283524 -0.061425325 -0.0719357 0.077404775
0.28754604 0.055194225 0.0030813643 -0.087748185 0.10956245 0.4332373 0.07685078 -0.0039785863
0.01549048 0.3566882 -0.0977432 0.006724056 -0.006938069 -0.0048546568 -0.16802475 0.0041822046
-0.25542337 -0.12614486 -0.012752705 -0.039439008 -0.060482148 -0.038518626 -0.021197367 -0.054048605
0.08512979 -0.017501004 -0.0049970536 -0.037025172 -0.08163417 0.07714272 0.12777461 0.4727053
0.057418395 -0.005501727 0.05756031 -0.05721657 0.032063447 -0.10058511 0.47617167 -0.1707584
-0.17345956 -0.018849991 -0.08119735 0.14963628 0.031244472 0.26865244 0.05797518 0.17564385
0.008383018 -0.050143667 0.030904422 -0.042814292 -0.06673821 0.14549965 -0.06445553 0.07064293
0.19588001 -0.06393163 -0.005538201 0.007885538 -0.01661866 -0.24866009 -0.03710951 0.023695054
0.11336875 0.010451228 0.16906585 -0.05856067 0.02875267 0.012272858 -0.083564706 -0.043265965
0.07149051 2.6751863e-05 -0.050314832 0.261118 -0.04096865 0.10803726 -0.012482448 -0.015726471
-0.031473905 -0.012309149 0.05925802 0.28657505 -0.052757714 0.039794054 0.029228298 0.026783442
0.052896425 0.23131612 0.1247166 -0.14094873 -0.11897034 0.024197161 0.03178532 -0.08245215
-0.009417393 0.026792645 0.100530185 0.07030266 0.0032878355 -0.023972409 0.053563118 -0.097577035
-0.12109901 0.043791763 0.10563681 -0.030611025 0.02779592 0.39348546 0.2117778 0.019652463
0.011760526 -0.0162101 0.002551955 -0.01886526 0.16298196 0.035760745 0.03528819 -0.09287215
0.005890177 0.058157664 -0.13784188 -0.115825355 -0.17048539 0.005296789 0.032333516 0.12774573
0.14072737 0.104598224 0.07336447 0.013117023 0.009042144 -0.093246 -0.18480894 -0.11401987
0.013603308 0.039764795 -0.024068289 -0.04406501 0.12892976 -0.24311785 -0.05216774 -0.03334719
0.053418066 0.032098953 -0.22039783 0.02658423 0.057350874 0.03909784 -0.034716178 -0.07480661
-0.059516825 0.021108747 0.036327288 0.085537545 0.49532494 -0.2040843 -0.007068042 0.16711432
0.12562358 0.292462 0.27902076 0.3822426 0.016979096 -0.06408369 0.12687929 -0.11253512
-0.025373016 0.03578227 -0.03327222 0.15617022 0.08930819 0.054666955 -0.061863538 0.39420712
-0.08264503 0.056682646 0.11053933 -0.060598176 0.09336284 -0.07735827 0.044831064 0.003656049
0.13294171 0.07632446 -0.018391766 0.1391162 0.031040529 -0.23225716 0.12432658 0.04564881
0.12617348 0.08458091 0.2323093 -0.07714998 -0.11149376 0.049523924 0.018159142 0.019622907
0.12667131 -0.086129494 -0.0053024725 0.042720918 0.38316408 -0.048666123 0.07146446 0.30272904
0.07380711 0.018877743 -0.007592348 -0.17497006 0.017602732 -0.010475732 0.038902543 0.07364223
0.05221823 0.040188096 0.11723501 -0.26028508 0.015867071 0.012368656 0.0051752357 -0.0104702115

lin1.bias f4 [80]
00000000: 617c 003e 5d67 9e3d 2cd4 913c 29d2 353c
00000010: ed3d 583e 7a36 a73c afad 8abc 4aa5 89bd
00000020: 7103 60bd 6bd6 2b3e 0f1c 75bc 1c45 1d3e
00000030: 4856 dd3d 7f89 99bc 1980 ffbc e01d 133d
00000040: a677 453d 9db1 2c3e ca8c aabd c6ad f8bc
00000050: d6ae 85bd 0751 e83d f9e0 d6bc aa8a 1c3b
00000060: 27fc a33d 7456 a3bd 18dd 343d 15b5 b73d
00000070: 6973 d13d 7712 99bd 847d 8f3d bcd2 23bc
00000080: 76ca 9f3a bc5d a03c 998b db3d ca09 6a3e
00000090: 7cdd bd3b c0e4 8e3c 443f 54b9 1e95 353c
000000a0: f823 ad3d f996 cabc 000e 183d 90fc bcbb
000000b0: 00c1 513d 191d 38bc 1275 b8bd 6c99 84bc
000000c0: 8c9c 153e eda8 a5bd b7d7 adbd 16ba 5a3d
000000d0: 7e83 0f3c 4685 cf3c d565 393e 6386 aa3d
000000e0: 5cb4 cabd 195b 2e3c d90a c53c 0ae7 353d
000000f0: 1b47 323e 2474 42bc 3440 98bb f5f3 4dbd
00000100: 1b12 043e 424c 20bd 4b66 d2bc f153 42bd
00000110: 19b2 1c3e 0293 4b3e 5914 cb3d a621 7e3c
00000120: b676 4ebd cfae 093c ed19 423d 6f22 3dbd
00000130: 94a9 253e ce68 81bd 353e 0abe cd40 09bd
0.12547447 0.07734559 0.017801367 0.011097469 0.21117373 0.020411719 -0.016928522 -0.067209795
-0.054690782 0.16781013 -0.014960303 0.15358394 0.108074725 -0.018742321 -0.031189011 0.035917163
0.04820981 0.16864629 -0.08327635 -0.0303563 -0.06527488 0.1134358 -0.026230322 0.002388636
0.080070786 -0.07975474 0.044156164 0.089700855 0.10227091 -0.07474225 0.07006362 -0.009998973
0.0012191075 0.019575946 0.107199855 0.22855297 0.0057942253 0.01744306 -0.00020241464 0.011082916
0.08454126 -0.024730192 0.037122726 -0.0057674125 0.05120945 -0.011237406 -0.090067044 -0.016186439
0.14610499 -0.08088861 -0.0848841 0.05340012 0.0087593775 0.025332104 0.18105252 0.083264135
-0.09897682 0.010641837 0.024053024 0.04440979 0.17409937 -0.01186851 -0.0046463255 -0.050281484
0.12897532 -0.039135225 -0.025683543 -0.047443334 0.15302314 0.19880298 0.099159904 0.015510952
-0.05040618 0.008403494 0.047388006 -0.046175417 0.1617797 -0.06318818 -0.13500293 -0.033509064

outp.weight f4 [6, 80]
00000000: ddc3 653d b956 0d3e 71ab 5dbe 2ca1 923d
00000010: 4dbf e83d 39f4 21bd a83d 53bd 48fd 56be
00000020: 3153 523c 9d05 fb3d e460 c63b 00f8 7e3e
00000030: c1c7 073e 3d22 e8bd cef4 2b3e 8cc9 d63d
00000040: cff4 973d 89f4 1e3e 8111 4abe 62e9 f13c
00000050: 58bb 9dbe cbaf 4a3e bf59 b1be 94ea 6bbe
00000060: beaf 353e b76d dfbd cbd4 183c 7bf8 4f3e
00000070: ce27 063e 252f 80be ea6c 533e c80b 91bd
00000080: a258 75be bc8f 07be e741 db3d 3dc4 333e
00000090: 2d16 80be 315b 0cbe 9bd2 ff3d 2d42 1b3c
000000a0: 573b 523e df7e 35be f5b1 3ebc 4835 09bd
000000b0: 5688 013e f3f1 05be bb50 a53d 92ab d13d
000000c0: 13b0 523e c734 35bf daf5 27bc d2be cb3d
000000d0: 941a 76be d956 f3bd 8cba 1c3e 63de b13d
000000e0: cace aabe ac05 87bd 44ef 7d3d e6ef a33d
000000f0: 57fa 5c3e 2e7d 9bbe be3a d43d 54f8 a8be
00000100: 19a8 473e 7efa 593d a19b 00be 4098 c8be
00000110: 9ea2 063e f143 223e 0819 623e cfae 53be
00000120: 45e6 a6bd dfae c7bd 085e 6b3d c808 d5bc
00000130: d211 263e aa51 5d3c 4fd2 a9be 700d b7be
00000140: 2b23 f5be e1f8 71be 546d a3be a897 8cbd
00000150: 1726 92be f1ab 183e 35df a33d 60a1 443e
00000160: 4166 e93d f663 a8be 6366 1a3e a704 df3d
00000170: a661 dfbd c024 013e dea5 c53e 0b4e 453a
00000180: 55bb f3be f58f 85be b147 293e b947 f3bc
00000190: aab5 0c3e d44f 85be c9ce b4be 09a1 d63d
000001a0: 82b0 a3be f0e1 383e daae fa3d 047d c7bd
000001b0: 124f 86be b9a5 053e 9d3c fdbd a57e 923d
000001c0: eaf1 2e3e ac26 c53e 2aad 80be 0973 46be
000001d0: 2d91 f4bb 1c04 3b3e 8916 f73d 437c 1f3d
000001e0: b4d3 71be 1d4c 8bbe a3b7 6dbe 5f62 853c
000001f0: 59c4 07be 0b87 ee3d 1eb5 143e 207b 653e
00000200: fe19 0fbe 65c0 51be f0ec cf3d a953 2bbe
00000210: b5d8 9b3e d94f 2f3e 101c 94be 0325 a6be
00000220: e7fd 433e 7c21 22be f304 dabe 8976 1cbd
00000230: 7796 04be 4343 cebe 9986 243e bf9a d43d
00000240: 3167 37be fba3 80bc 102c 3ebe 3b99 9e3e
00000250: c254 a3be 5f59 8abe 5ae1 8e3d 5fa8 2d3e
00000260: 15a6 083e e181 1f3e bab9 c23d d048 0d3e
00000270: 052f 86be 9c3b dabc c9f1 aebe 2c5f 173e
00000280: 6bb0 a9bd 37c7 263d ac78 97bb badb f0be
00000290: d543 eb3d 86be 88be 2294 edbe ba47 e8bd
000002a0: 3872 b1bd d3ea d43d 5f23 26be aa28 8d3e
000002b0: 53d6 d03d 543e 94be 67e0 03bc d0cc 383e
000002c0: 3b35 c0be ae61 2b3e b647 173d 6314 bfbd
000002d0: 6501 64be edf2 383e 1707 8abe c0c9 2ebd
000002e0: 6540 2d3e f47e 0fbe 7861 dfbe 0ebe 863e
000002f0: f9f3 12bd 91fa 83be 653e 773e d9cd 05bf
00000300: e19b 283d c441 8b3d 9c79 593c 767e 263e
00000310: be9f fe3e 49d9 783b 9f6c 443e f302 05bf
00000320: d462 623e d62f a73e 9c34 e9be 211e 18bf
00000330: 8f99 593e ce89 43be b545 1fbe 697b 6dbe
00000340: e14e 7e3e 469e 1fbd 7eaf 33be 2a5b d6be
00000350: 7473 dd3e 018f 50be 3a38 2e3e d740 54be
00000360: 5bf0 16bd 0d58 2b3e af61 fcbe c12d fcbe
00000370: aa3f 7d3e 094d 56be 1f20 54be a4ce 9ebe
00000380: 2608 5c3e bd37 943c fab4 563c 95f1 d13e
00000390: 1055 fe3d fac1 003e e4d3 8a3e 7929 2c3e
000003a0: f8c2 d13d ab2f c2be 9c6e ee3d ed9b 643d
000003b0: 4718 243e a0aa 2dbd 0f41 afbd fc8a 2dbd
000003c0: da1e c8bd 5153 c2be badb 993e 6b48 9a3d
000003d0: 08a7 ddbe 682e 183e 6e4a fe3d 9620 3e3e
000003e0: 0f86 c53d 7330 92be 4c51 083e 3015 c6be
000003f0: 18eb 44bd 10ca f23d 977f 93be ecf5 6bbe
0.056094993 0.13802613 -0.21647431 0.07159647 0.11364613 -0.03953955 -0.05157247 -0.20995057
0.012837217 0.1225693 0.0060540307 0.24899292 0.13259794 -0.113346554 0.16792604 0.10487661
0.074197404 0.1552297 -0.1973324 0.02953023 -0.30806994 0.19793622 -0.34638783 -0.23038703
0.17742822 -0.10909598 0.009328078 0.20309632 0.13101122 -0.25035968 0.20647016 -0.07082325
-0.23959592 -0.13238424 0.10705929 0.17555328 -0.2501692 -0.13706662 0.12491342 0.009476227
0.20530449 -0.17724179 -0.011639108 -0.03349808 0.12649664 -0.13080578 0.08072039 0.102378026
0.2057498 -0.70783657 -0.010251487 0.099485055 -0.24033576 -0.11881799 0.15305537 0.08684995
-0.33360893 -0.06592879 0.06199576 0.08004741 0.21579872 -0.30368942 0.10362767 -0.3300196
0.19497718 0.053217404 -0.12559368 -0.39178658 0.13147971 0.1584623 0.22079861 -0.20672153
-0.08149389 -0.09750151 0.057462722 -0.026005164 0.16217735 0.01350824 -0.33168265 -0.3575244
-0.47878394 -0.23630096 -0.31919348 -0.06864864 -0.28544685 0.1490934 0.08001558 0.19202185
0.113964565 -0.32888764 0.1507812 0.10889559 -0.10907297 0.12611675 0.3860311 0.0007526583
-0.4760386 -0.26086393 0.16531254 -0.029697286 0.13741174 -0.26037467 -0.35314015 0.10479934
-0.31970602 0.18054938 0.122403815 -0.09740642 -0.262322 0.130515 -0.12365077 0.07153062
0.1708447 0.38506067 -0.25132114 -0.1937982 -0.0074635954 0.18263286 0.12064845 0.038936865
-0.23615915 -0.27206507 -0.23214583 0.016282259 -0.13258494 0.11646851 0.14522216 0.2241025
-0.13974759 -0.20483549 0.10152614 -0.16731133 0.30438772 0.17120303 -0.2892766 -0.32450113
0.19139825 -0.15833086 -0.425819 -0.03819898 -0.12948023 -0.40285692 0.1606697 0.10381078
-0.17910458 -0.015703192 -0.18571496 0.3097628 -0.31900603 -0.2702131 0.06976576 0.1695876
0.13344605 0.15576889 0.09508081 0.13797307 -0.26207748 -0.026639752 -0.34168842 0.14782399
-0.08285602 0.04071733 -0.0046225395 -0.47042638 0.11487547 -0.26707858 -0.4640208 -0.11341806
-0.086643636 0.10396352 -0.1622443 0.27570087 0.10197129 -0.28953803 -0.008049107 0.1804688
-0.37540612 0.1673648 0.036933623 -0.0933006 -0.22266157 0.18061419 -0.26958534 -0.042672873
0.16919096 -0.14013273 -0.4362905 0.26316875 -0.0358772 -0.25777104 0.24144895 -0.52267224
0.041164283 0.06799653 0.013273623 0.16259179 0.4973125 0.003797131 0.1918206 -0.51957625
0.22108012 0.32653683 -0.4554795 -0.59420973 0.21249984 -0.19095537 -0.15553935 -0.23191608
0.24834777 -0.0389693 -0.17547414 -0.41866428 0.43252146 -0.20367052 0.17013636 -0.2072786
-0.036850315 0.16732807 -0.49293277 -0.49253657 0.24731317 -0.20927824 -0.20715378 -0.3101703
0.21487483 0.018092984 0.013104672 0.41004625 0.12418568 0.12573996 0.27114785 0.16812696
0.102422655 -0.37926993 0.11642191 0.055812765 0.16024886 -0.04239905 -0.08557331 -0.042368874
-0.097715095 -0.3795419 0.3005045 0.07533344 -0.43291497 0.14861453 0.1241654 0.18567118
0.0964471 -0.2855259 0.13312262 -0.3868804 -0.048075765 0.118549466 -0.2880828 -0.2304303

outp.bias f4 [6]
00000000: 8b79 55bc aea3 07be 6f54 0c3d 8a39 b0bc
00000010: 2db6 933d 430f d73d
-0.013029466 -0.13246033 0.03426021 -0.021511812 0.07212482 0.10500958
