results/decimation_bizzaro_world/decimation.pth (torch, 113845 bytes, 10 tensors)

con0.weight f4 [10, 1, 3]
0.13642299 -0.6600773 -1.1408259 -0.93067116 -0.09558182 -1.0325803 0.8202076 -0.7900627
0.60959876 1.0947129 0.055902712 0.47486183 0.19748092 0.17849691 0.13396198 -0.8848466
0.03556506 -0.78763425 -0.18893898 -0.35329202 -0.51976573 0.5410787 0.39552516 -0.8925953
0.010216322 -0.16838238 0.0148093235 -0.34373373 0.73569524 1.2243016
00000000: 78b2 0b3e d3fa 28bf 9506 92bf 7740 6ebf
00000010: 67c0 c3bd 972b 84bf 20f9 513f 8d41 4abf
00000020: aa0e 1c3f 8d1f 8c3f 3efa 643d 1721 f33e
00000030: 7038 4a3e e5c7 363e 542d 093e 4f85 62bf
00000040: abac 113d 66a2 49bf 3879 41be b1e2 b4be
00000050: 5e0f 05bf 2284 0a3f 4682 ca3e 2081 64bf
00000060: 5c62 273c 6e6c 2cbe cea2 723c defd afbe
00000070: 8656 3c3f eab5 9c3f

con0.bias f4 [10]
0.62595755 -0.06326099 0.5807164 0.43989363 -0.52169204 0.4646376 -0.4543654 0.49441987
-0.20608142 0.54278445
00000000: c13e 203f fa8e 81bd d4a9 143f bd39 e13e
00000010: 9c8d 05bf fbe4 ed3e 95a2 e8be 9a24 fd3e
00000020: 0207 53be ecf3 0a3f

con1.weight f4 [10, 10, 5, 2]
-0.05437248 0.078919165 -0.03950454 -0.08197365 -0.011305106 -0.087941445 0.063216165 -0.045924675
0.0011057735 0.07437565 0.024675762 -0.02250619 0.04477446 0.08895888 -0.011809766 0.04461756
0.032210447 0.013831317 -0.018413484 0.095625296 0.042880844 0.08329727 0.035814144 0.046452414
-0.03205402 0.023050977 -0.0745054 -0.01475662 -0.03196738 0.0039236904 -0.006122041 0.06110828
0.01695658 0.031325378 0.059045114 -0.016736722 -0.06334814 -0.0634311 -0.087583564 -0.07529916
-0.09768569 -0.016278757 0.07630216 -0.047379185 0.014050114 -0.02371403 0.027614737 0.00012723208
0.05532931 -0.061015356 -0.037478138 -0.019669652 0.02230451 -0.04319265 -0.050543476 -0.007926071
-0.041774657 -0.041231193 0.07902715 0.032932736 0.03945762 0.007054484 -0.03498849 0.014348328
0.042574752 -0.062862925 -0.060030032 -0.07836256 -0.018416608 -0.015670503 -0.054401185 0.084604934
-0.08125658 -0.07801791 -0.044663776 0.009525227 -0.016910171 -0.03238789 -0.025800992 -0.006490433
0.03681902 -0.02032795 0.017103387 -0.0449554 -0.030070161 0.07415532 -0.05094081 -0.061561145
0.027741719 0.0056350115 -0.055640865 -0.002227533 -0.042131852 0.04544816 -0.043174338 -0.05755507
-0.050554242 0.0822744 0.09802715 -0.09438403 -0.010832654 0.04458368 0.1941156 -0.09330538
0.106054835 0.007858022 0.03923957 0.119781315 0.039700568 0.13993181 0.2124509 0.5974067
-0.05896327 0.026515452 -0.12633422 -0.23985636 0.09511413 -0.022412414 -0.18436548 -0.14370982
-0.07295358 -0.29711872 0.098789476 0.11988057 0.020885445 0.032621782 -0.034898266 0.18962437
0.07001805 0.042580232 -0.01596324 -0.6398832 0.091901325 0.05215194 -0.006015481 0.07089353
-0.080067195 0.24705002 0.04303461 0.025679976 -0.026199449 -0.07259422 0.056917693 -0.046742108
-0.014783287 0.070542134 0.0015492797 -0.008046246 -0.030206824 0.044180978 -0.0048129475 0.38503537
-0.06076297 0.06988182 0.11578565 0.023473307 -0.014329221 -0.023659866 0.06117064 0.087631404
0.014099288 -0.08591216 0.06204318 -0.006159878 -0.068253756 -0.09372288 0.081961386 0.06643193
-0.005354619 -0.028398633 0.09924833 -0.1704936 0.10963299 -0.08097275 0.018672222 0.0157111
0.13725774 0.022844002 0.15678638 0.13992591 0.009687269 -0.004262376 -0.09925832 0.044922173
0.011851716 -0.066166416 0.08504792 -0.01973865 -0.07505653 0.040324975 0.06665696 0.067551196
-0.19998161 0.24956836 0.08324351 0.22561927 0.04934947 -0.0068686656 -0.07148525 -0.041947022
-0.23674962 0.07963079 -0.07135761 -0.20136955 0.15956223 0.032999326 0.164816 0.097573236
0.009485185 0.068029 -0.25345147 0.053300414 -0.27674612 -0.38573408 -0.25495517 -0.0951889
-0.024894323 0.0073126443 0.13484141 0.023894137 0.17783695 0.07610075 0.02381094 0.13954882
0.12953906 -0.023754403 0.16439304 0.21137728 -0.06778231 0.061683044 0.45727795 0.10135577
0.13077477 0.21201496 0.12222244 -0.076438084 0.105512284 0.20099738 -0.058137204 -0.122831225
-0.09928196 0.010074413 0.023499204 -0.04561423 -0.07947685 0.09563519 -0.08344328 -0.032597985
-0.010815704 -0.014645862 -0.24379344 0.0019574834 0.021133503 -0.17286491 -0.030600939 0.022323303
00000000: adb5 5ebd 5fa0 a13d 83cf 21bd cde1 a7bd
00000010: 0d39 39bc a51a b4bd 7a77 813d 831b 3cbd
00000020: 9aef 903a 4352 983d d324 ca3c e75e b8bc
00000030: 6d65 373d 1330 b63d c07d 41bc e7c0 363d
00000040: 1aef 033d c09c 623c e0d7 96bc 32d7 c33d
00000050: d3a3 2f3d c297 aa3d dab1 123d e344 3e3d
00000060: 134b 03bd 67d5 bc3c 4a96 98bd c0c5 71bc
00000070: 3af0 02bd 4d92 803b 679b c8bb ad4c 7a3d
00000080: 87e8 8a3c 0a4f 003d 4ad9 713d 731b 89bc
00000090: abbc 81bd 2ae8 81bd 035f b3bd 7236 9abd
000000a0: 6f0f c8bd 075b 85bc 4f44 9c3d ad10 42bd
000000b0: 7332 663c ed43 c2bc 4d38 e23c 9a69 0539
000000c0: fda0 623d 3deb 79bd ad82 19bd 4022 a1bc
000000d0: f3b7 b63c c7ea 30bd ad06 4fbd 5adc 01bc
000000e0: e71b 2bbd 0ae2 28bd fdd8 a13d 7ae4 063d
000000f0: 509e 213d 4d29 e73b 1750 0fbd 4015 6b3c
00000100: dd62 2e3d 47be 80bd 0de2 75bd 8d7c a0bd
00000110: 6dde 96bc 6d5f 80bc c7d3 5ebd 5a45 ad3d
00000120: da69 a6bd dbc7 9fbd 5df1 36bd b30f 1c3c
00000130: 3387 8abc 2aa9 04bd 9a5c d3bc b3ad d4bb
00000140: 8acf 163d cd86 a6bc 671c 8c3c 2723 38bd
00000150: b355 f6bc bfde 973d 50a7 50bd 8a27 7cbd
00000160: 9a42 e33c e7a5 b83b ade7 63bd cdfb 11bb
00000170: 7392 2cbd da27 3a3d 93d7 30bd ddbe 6bbd
00000180: f711 4fbd 7b7f a83d 75c2 c83d 6a4c c1bd
00000190: 727b 31bc 609d 363d 3dc6 463e e416 bfbd
000001a0: 4733 d93d efbe 003c acb9 203d e84f f53d
000001b0: 109d 223d 494a 0f3e bb8c 593e a5ef 183f
000001c0: 7883 71bd ef36 d93c c25d 01be e89c 75be
000001d0: 32cb c23d 3d9a b7bc 4eca 3cbe ab28 13be
000001e0: b068 95bd f21f 98be 2352 ca3d f283 f53d
000001f0: f417 ab3c 6b9e 053d 7cf1 0ebd e42c 423e
00000200: a065 8f3d 9c68 2e3d 57c5 82bc 63cf 23bf
00000210: c336 bc3d 469d 553d 831d c5bb a130 913d
00000220: 45fa a3bd aefa 7c3e 0f45 303d d05e d23c
00000230: 3aa0 d6bc 47ac 94bd 8722 693d a774 3fbd
00000240: 9a35 72bc 6578 903d 3311 cb3a 67d4 03bc
00000250: 4d74 f7bc 1df7 343d eeb5 9dbb 5b23 c53e
00000260: 98e2 78bd 331e 8f3d 0721 ed3d 184b c03c
00000270: 1cc5 6abc 56d2 c1bc 118e 7a3d 1878 b33d
00000280: b300 673c b7f2 afbd fd20 7e3d cdd8 c9bb
00000290: a0c8 8bbd c8f1 bfbd 5fdb a73d 770d 883d
000002a0: cd75 afbb 40a4 e8bc b542 cb3d e095 2ebe
000002b0: 4387 e03d 0bd5 a5bd 7df6 983c 91b4 803c
000002c0: 4b8d 0c3e 5823 bb3c 9c8c 203e bd48 0f3e
000002d0: 5ab7 1e3c 67ab 8bbb f247 cbbd 5000 383d
000002e0: b32d 423c 4282 87bd 9b2d ae3d f3b2 a1bc
000002f0: 3db7 99bd cd2b 253d 7283 883d 4858 8a3d
00000300: fbc7 4cbe d98e 7f3e 937b aa3d bd08 673e
00000310: ab22 4a3d 8b12 e1bb dc66 92bd a4d0 2bbd
00000320: 7e6e 72be 7815 a33d f023 92bd d233 4ebe
00000330: 4864 233e 4d2a 073d 87c5 283e 7ad4 c73d
00000340: c067 1b3c ca52 8b3d 64c4 81be 8951 5a3d
00000350: abb1 8dbe f07e c5be 7c89 82be 66f2 c2bd
00000360: 2eef cbbc e89e ef3b de13 0a3e a3bd c33c
00000370: e41a 363e b6da 9b3d 290f c33c e3e5 0e3e
00000380: e3a5 043e 9898 c2bc a656 283e 4973 583e
00000390: 74d1 8abd 5ca7 7c3d 5620 ea3e 9d93 cf3d
000003a0: d2e9 053e 731a 593e c24f fa3d 928b 9cbd
000003b0: d316 d83d 42d2 4d3e 4721 6ebd f08e fbbd
000003c0: 5754 cbbd 270f 253c 6781 c03c fdd5 3abd
000003d0: c2c4 a2bd 62dc c33d 4fe4 aabd 7785 05bd
000003e0: 5a34 31bc 33f5 6fbc fda4 79be 1f49 003b
000003f0: 2b20 ad3c 8003 31be d2ae fabc 5cdf b63c

con1.bias f4 [10]
-0.061702825 0.07775562 0.016610011 0.051935185 0.0659815 0.049659956 -0.052911073 0.081034176
0.104975305 0.05253725
00000000: 1abc 7cbd 573e 9f3d b811 883c fdb9 543d
00000010: 4f21 873d 3d68 4b3d 48b9 58bd 3ff5 a53d
00000020: 4bfd d63d 4d31 573d

lin0.weight f4 [256, 20]
-0.06684268 -0.09037357 -0.13134651 -0.19606723 0.056732412 0.19264372 -0.14738052 -0.010213812
0.058101807 -0.18401717 0.20004751 -0.13807213 -0.0427784 -0.14874937 0.20857403 0.14312842
0.07673104 -0.19455831 -0.19418071 0.38336265 -0.162918 -0.21933688 -0.24578966 0.05092499
0.1334298 0.03515265 -0.25437486 0.02747844 -0.07024306 -0.20953728 -0.34972015 0.103536926
-0.22257909 0.12335301 0.028575586 -0.011151221 0.22454153 0.14467557 0.16878705 0.514868
0.08354518 0.07332065 -0.14756791 -0.22501273 0.23458353 0.01596717 0.12368779 -0.13296415
0.11670272 0.164882 -0.14523453 0.19394377 0.083180904 -0.051282544 0.1263062 -0.20797163
-0.123829156 -0.051870383 0.3538106 -0.13884343 0.18922031 0.1603248 0.18851656 -0.0033395793
-0.16369627 0.36037982 0.05016598 0.19615987 0.045978386 0.045932192 -0.34914917 -0.11452008
0.11608335 -0.014636226 0.019976465 -0.089994416 -0.21921986 -0.25604108 -0.18669331 -0.108526774
-0.18525006 0.17012866 -0.26978785 -0.0074313236 0.15439202 0.14538598 -0.019276887 0.13905916
0.10101993 0.20524378 -0.17793873 0.148789 -0.180068 0.05103328 -0.18425205 -0.13087694
-0.1297335 0.22477609 -0.022630105 0.06731551 0.11992356 0.131322 0.09704624 -0.1913532
0.066320084 0.09605459 -0.17103125 -0.2744939 0.10104823 -0.09264664 0.30330157 -0.09733012
-0.00364894 0.13236731 0.116841435 0.14873166 -0.02398612 -0.4400572 -0.13804495 0.31945288
0.12571675 -0.10934726 -0.106129654 0.013991634 0.2740363 -0.15094447 -0.06834645 0.21243109
-0.1848366 -0.19733368 0.02885247 -0.44624722 -0.18900077 0.028967038 0.0065324013 0.14663048
0.18378915 0.17735885 -0.1276377 0.028798157 0.18915726 0.12881558 -0.235108 0.022982506
0.1327496 -0.13399097 0.3301975 0.17137286 -0.05102037 -0.07210218 0.33196586 -0.1041479
0.1115438 0.08698204 -0.090809874 -0.03550207 -0.26465374 -0.20624962 -0.21722515 -0.18065535
0.11840774 0.08967334 0.187781 -0.067743175 0.1379263 0.048748497 -0.22699136 0.16751723
-0.19647114 0.04639614 -0.07291363 -0.036919527 0.11214298 0.22833724 0.06899846 0.17466551
0.0009790538 -0.29487562 -0.08019484 0.27820438 0.1791381 0.029736934 0.17900625 -0.19964007
-0.3199063 0.046581607 0.14033552 -0.033402517 -0.10785215 0.030506067 0.06366757 0.19681035
0.04218405 0.062666975 -0.121708184 -0.0410852 -0.28360546 0.05178204 -0.028237151 -0.0996822
0.20936283 -0.105430104 -0.09114863 0.014798626 -0.08966694 -0.12530597 0.1357335 -0.04436247
0.07502432 0.09584117 0.031649336 -0.23216581 -0.010425163 -0.22554211 -0.13153628 -0.06707443
0.12972632 0.00872447 -0.0021462436 0.49270245 0.0839149 0.15539537 0.034259804 0.11914862
-0.25122342 0.1523209 -0.105921485 0.18411031 -0.03905137 -0.06318297 0.06129879 -0.10506391
-0.122577004 0.19064243 -0.19672072 -0.05763554 -0.13886106 -0.24495466 0.16809681 -0.4826172
0.21295093 0.2158121 0.09879396 0.22118583 0.2167179 0.14914618 -0.32694831 -0.3511003
0.030826313 0.16333286 -0.18121625 -0.12017822 -0.10703582 -0.0024280865 -0.19524758 -0.116478436
00000000: d1e4 88bd c715 b9bd b37f 06be d9c5 48be
00000010: 3f60 683d 6544 453e ebea 16be d557 27bc
00000020: 29fc 6d3d ff6e 3cbe 41d9 4c3e c862 0dbe
00000030: 6738 2fbd c151 18be 6e94 553e 4290 123e
00000040: 2a25 9d3d 4b3a 47be 4fd7 46be 1c48 c43e
00000050: fad3 26be d999 60be 49b0 7bbe b996 503d
00000060: d2a1 083e 3afc 0f3d 6c3d 82be 771a e13c
00000070: 98db 8fbd f190 56be 850e b3be 2b0b d43d
00000080: c6eb 63be 81a0 fc3d 5917 ea3c 9cb3 36bc
00000090: 37ee 653e d525 143e 83d6 2c3e 64ce 033f
000000a0: bc19 ab3d 2329 963d 0b1c 17be bd69 66be
000000b0: aa36 703e 95cd 823c 0650 fd3d c127 08be
000000c0: d601 ef3d d4d6 283e 5cb8 14be 3299 463e
000000d0: c05a aa3d a50d 52bd 6a56 013e 84f6 54be
000000e0: 249a fdbd 0a76 54bd aa26 b53e f92c 0ebe
000000f0: f8c2 413e 2f2c 243e 7c0a 413e d8dc 5abb
00000100: ff9f 27be b483 b83e d87a 4d3d 22de 483e
00000110: d553 3c3d 6523 3c3d aec3 b2be 8189 eabd
00000120: 1bbd ed3d c8cc 6fbc afa5 a33c fe4e b8bd
00000130: 2c7b 60be d117 83be 882c 3fbe 4943 debd
00000140: 31b2 3dbe 3536 2e3e a221 8abe 7682 f3bb
00000150: f118 1e3e 10e0 143e 90ea 9dbc 8665 0e3e
00000160: 89e3 ce3d 6d2b 523e 9235 36be 255c 183e
00000170: bf63 38be 4608 513d 92ac 3cbe 9b04 06be
00000180: dcd8 04be b42b 663e c562 b9bc b7dc 893d
00000190: 7c9a f53d 4679 063e 2ec0 c63d 18f2 43be
000001a0: d3d2 873d 45b8 c43d d122 2fbe 778a 8cbe
000001b0: 60f2 ce3d 86bd bdbd 584a 9b3e 0455 c7bd
000001c0: 0e23 6fbb 4c8b 073e 904a ef3d 1d4d 183e
000001d0: 8a7e c4bc 2d4f e1be a85b 0dbe 548f a33e
000001e0: e4bb 003e 75f1 dfbd 815a d9bd 2b3d 653c
000001f0: 7c4e 8c3e 3091 1abe 39f9 8bbd 8987 593e
00000200: ce45 3dbe d711 4abe 045c ec3c 847a e4be
00000210: 6b89 41be 484c ed3c c10d d63b 4d26 163e
00000220: 3933 3c3e 8f9d 353e 75b3 02be 1dea eb3c
00000230: 71b2 413e 3be8 033e 27c0 70be cf45 bc3c
00000240: 83ef 073e ee34 09be a60f a93e 5e7c 2f3e
00000250: bcfa 50bd 4faa 93bd 6ef7 a93e 7f4b d5bd
00000260: 1371 e43d a423 b23d 87fa b9bd 9e6a 11bd
00000270: b280 87be 1a33 53be 4570 5ebe b7fd 38be
00000280: c27f f23d a8a6 b73d aa49 403e efbc 8abd
00000290: 8d3c 0d3e 81ac 473d 6c70 68be a389 2b3e
000002a0: bb2f 49be e109 3e3d be53 95bd ee38 17bd
000002b0: 38ab e53d 3dd1 693e 114f 8d3d 84db 323e
000002c0: 9853 803a f0f9 96be 313d a4bd ce70 8e3e
000002d0: fa6f 373e df9a f33c 6a4d 373e 726e 4cbe
000002e0: c2ca a3be 5bcc 3e3d 1db4 0f3e 14d1 08bd
000002f0: 97e1 dcbd dce7 f93c 2564 823d a788 493e
00000300: 2fc9 2c3d 8b57 803d 2442 f9bd f448 28bd
00000310: bc34 91be 6819 543d 9951 e7bc 2e26 ccbd
00000320: 3663 563e bdeb d7bd 22ac babd f075 723c
00000330: 4da3 b7bd 3550 00be b9fd 0a3e 6cb5 35bd
00000340: 5aa6 993d 6048 c43d bca2 013d e0bc 6dbe
00000350: 4ece 2abc 83f4 66be 72b1 06be 525e 89bd
00000360: fad6 043e 14f1 0e3c fea7 0cbb 7f43 fc3e
00000370: 93db ab3d f71f 1f3e 0254 0c3d 3104 f43d
00000380: 5ba0 80be 03fa 1b3e 5ded d8bd 6a87 3c3e
00000390: 54f4 1fbd 1366 81bd 7114 7b3d bf2b d7bd
000003a0: a709 fbbd c537 433e 2871 49be 3e13 6cbd
000003b0: 9831 0ebe 65d5 7abe 9221 2c3e 9a19 f7be
000003c0: cf0f 5a3e d9fd 5c3e 7d54 ca3d 8a7e 623e
000003d0: 4ceb 5d3e c7b9 183e c565 a7be 6bc3 b3be
000003e0: 7787 fc3c bb40 273e c190 39be 0020 f6bd
000003f0: 9935 dbbd 8820 1fbb fbee 47be 3f8c eebd

lin0.bias f4 [256]
0.09581375 -0.0556641 -0.1100167 0.12647395 -0.16339889 0.029227523 -0.14465979 -0.10615649
0.104066946 -0.07832385 0.15920134 0.278003 -0.05208375 0.03266952 0.09578399 -0.26044142
0.22385365 -0.020310175 0.16108312 0.18074037 -0.0060606166 0.08378868 0.18125352 -0.057111688
-0.18323398 0.12230998 -0.099373974 -0.13029222 0.17007275 0.062177926 -0.1315562 0.014980124
-0.06452395 0.082863346 0.22303498 0.15089293 -0.16194978 0.15622006 -0.05406218 -0.0014744046
-0.18110956 0.12239949 0.03574522 -0.023174344 -0.30690348 0.115117684 0.18041573 -0.06852354
0.12912835 0.12546518 0.19431056 0.082176544 -0.069588326 0.08193034 -0.20610715 -0.21322434
-0.17536825 0.08935046 -0.0013659871 0.07374893 -0.019439517 -0.05522781 0.18783608 -0.07559337
0.020981414 -0.13568784 -0.03395119 -0.16308369 0.12363285 -0.036796756 0.20191535 0.26683977
-0.16644464 0.07518709 0.08228296 -0.1942392 0.1654543 -0.21939315 0.0038264154 0.08096264
-0.033006772 0.1882696 0.20222636 -0.03406069 -0.08107526 -0.13238339 0.15678124 -0.08242538
0.18520789 -0.16172087 -0.027121827 0.20060945 -0.02200228 -0.13035837 -0.09242579 0.21419996
-0.045530148 -0.18151064 0.053327907 -0.01609357 -0.20725536 0.2349169 0.15179014 0.1278892
0.06255295 -0.019279214 0.13742256 0.105997756 -0.20358102 0.18261679 -0.16452111 -0.22972476
-0.117358364 0.03483302 0.06362924 -0.2024432 0.24395561 0.079333454 0.068878636 0.15322816
-0.14789137 -0.037617777 -0.10521633 -0.10619361 0.019761184 -0.2975603 0.2011623 0.039393324
0.12235312 0.20135048 -0.1962223 0.22814965 -0.01562576 -0.068367705 0.036610816 0.024722164
0.053555954 0.015656892 -0.0035565286 -0.11299043 0.055462774 0.027269747 0.038802095 0.12977238
0.06094321 0.07067915 -0.00166638 -0.09130079 -0.24677916 -0.124591336 -0.17404939 0.0020495818
-0.081596315 -0.17656654 0.23729657 0.18327251 -0.16583024 -0.057887033 0.047100633 -0.16413936
-0.11198794 0.05067111 -0.06991693 -6.0946004e-05 -0.08142841 0.022058332 0.1876956 -0.03866234
0.105199665 0.06560871 0.18667173 -0.17355601 -0.083984144 -0.13001499 0.044073194 -0.03147588
0.19135208 -0.15788989 0.04715547 -0.12311667 -0.15498619 0.1760947 -0.13616596 0.223252
-0.15852803 0.061231278 0.105823964 0.11039986 -0.24078313 0.17723194 0.26897866 0.11834044
0.09879782 -0.060219888 -0.0036215666 -0.03974234 0.28716233 -0.17448391 0.08026258 -0.015775591
0.12183331 -0.15462963 -0.12125345 -0.19963752 0.09598091 -0.2169864 -0.16075566 0.16620745
-0.06915325 -0.17084989 0.009841821 -0.034426473 0.17621487 0.1225206 0.08451343 -0.20322156
0.069997 0.14486335 0.16940227 -0.20252164 -0.10226817 0.19608572 -0.04565329 -0.0060299365
0.044424392 0.17194027 0.26283553 -0.13064672 0.106581174 -0.09691283 0.0016220447 -0.24469282
-0.107877396 0.11042149 0.13564144 0.122433744 -0.19507496 -0.1690587 -0.0577365 -0.21016403
0.14350373 -0.023525236 0.1790094 0.2185437 -0.32420912 -0.08098971 -0.2204027 0.08799181
0.031507708 0.15361808 0.21788609 0.06265703 0.060284574 0.084689006 0.22269295 0.032281697
00000000: 003a c43d 0a00 64bd 7050 e1bd 6382 013e
00000010: 0a52 27be 8f6e ef3c b221 14be 9368 d9bd
00000020: 0d21 d53d 4168 a0bd ad05 233e 6956 8e3e
00000030: c555 55bd 79d0 053d 662a c43d 9458 85be
00000040: e439 653e 8661 a6bc f9f2 243e 0114 393e
00000050: 2398 c6bb 6699 ab3d 869a 393e f2ed 69bd
00000060: b0a1 3bbe a87d fa3d 9584 cbbd 536b 05be
00000070: 8d27 2e3e 48ae 7e3d abb6 06be 326f 753c
00000080: 2225 84bd 42b4 a93d 4863 643e ad83 1a3e
00000090: 2ad6 25be 27f8 1f3e 4e70 5dbd cf40 c1ba
000000a0: c974 39be 95ac fa3d 9469 123d 1fd8 bdbc
000000b0: 7422 9dbe d2c2 eb3d e7be 383e 1256 8cbd
000000c0: 393a 043e f279 003e 59f9 463e 2d4c a83d
000000d0: 5384 8ebd 18cb a73d c10d 53be 7b57 5abe
000000e0: bc93 33be 60fd b63d ec0a b3ba ae09 973d
000000f0: 9f3f 9fbc 8e36 62bd 1a58 403e b2d0 9abd
00000100: 37e1 ab3c c1f1 0abe 6710 0bbd 69ff 26be
00000110: 3833 fd3d 32b8 16bd e6c2 4e3e 399f 883e
00000120: 7770 2abe b0fb 993d f883 a83d a4e6 46be
00000130: da6c 293e 99a8 60be 99c4 7a3b becf a53d
00000140: 1c32 07bd bfc9 403e 6d14 4f3e 3983 0bbd
00000150: c90a a6bd 838f 07be 438b 203e a3ce a8bd
00000160: 23a7 3d3e 289a 25be 982e debc 906c 4d3e
00000170: 203e b4bc aa7c 05be bc49 bdbd 3c57 5b3e
00000180: d27d 3abd eddd 39be 5d6e 5a3d aad6 83bc
00000190: c03a 54be 0e8e 703e e06e 1b3e 63f5 023e
000001a0: c31b 803d 71ef 9dbc 80b8 0c3e 5a15 d93d
000001b0: 8b77 50be e5ff 3a3e 3978 28be f83c 6bbe
000001c0: 9559 f0bd 12ad 0e3d 0c50 823d 454d 4fbe
000001d0: 80cf 793e 9479 a23d 3e10 8d3d d8e7 1c3e
000001e0: d670 17be 1915 1abd a97b d7bd 097c d9bd
000001f0: 35e2 a13c d359 98be 7dfd 4d3e e55a 213d
00000200: 4694 fa3d d22e 4e3e 80ee 48be 10a0 693e
00000210: 9801 80bc 5e04 8cbd 39f5 153d 2386 ca3c
00000220: 7d5d 5b3d e242 803c a614 69bb 8767 e7bd
00000230: ef2c 633d ce64 df3c f2ee 1e3d 0de3 043e
00000240: 969f 793d 3bc0 903d 6f6a daba e9fb babd
00000250: adb3 7cbe be29 ffbd 013a 32be 4752 063b
00000260: f81b a7bd dccd 34be dffd 723e caab 3b3e
00000270: 67cf 29be f41a 6dbd 98ec 403d 2614 28be
00000280: ef59 e5bd 838c 4f3d 9b30 8fbd 46a0 7fb8
00000290: f0c3 a6bd adb3 b43c 4633 403e 675c 1ebd
000002a0: ec72 d73d dc5d 863d e026 3f3e abb8 31be
000002b0: e1ff abbd a622 05be 1886 343d daec 00bd
000002c0: cdf1 433e e3ad 21be 1826 413d 9824 fcbd
000002d0: b3b4 1ebe 2b52 343e 176f 0bbe 2c9c 643e
000002e0: 2c55 22be a6cd 7a3d 3cba d83d 5219 e23d
000002f0: da8f 76be 4a7c 353e 92b7 893e 795c f23d
00000300: 8356 ca3d 21a9 76bd ce57 6dbb ddc8 22bd
00000310: f106 933e e9ab 32be b560 a43d d03b 81bc
00000320: be83 f93d 3b57 1ebe bb53 f8bd c76d 4cbe
00000330: a491 c43d af31 5ebe 229d 24be 4932 2a3e
00000340: 38a0 8dbd 46f3 2ebe 973f 213c c602 0dbd
00000350: ac71 343e 15ec fa3d 6115 ad3d 5019 50be
00000360: 965a 8f3d 0f57 143e ca77 2d3e d561 4fbe
00000370: f971 d1bd b2ca 483e f2fe 3abd c696 c5bb
00000380: 5af6 353d 1c11 303e 6192 863e 41c8 05be
00000390: 3b47 da3d 3c7a c6bd ca9a d43a c190 7abe
000003a0: d3ee dcbd aa24 e23d 97e5 0a3e 8bbe fa3d
000003b0: bbc1 47be b91d 2dbe 1c7d 6cbd 3d35 57be
000003c0: a4f2 123e ffb7 c0bc 3d4e 373e ebc9 5f3e
000003d0: bdfe a5be efdd a5bd 3fb1 61be 0d35 b43d
000003e0: 3a0e 013d 0f4e 1d3e 881d 5f3e 5452 803d
000003f0: f5ec 763d 6e71 ad3d 9f09 643e d039 043d

lin1.weight f4 [80, 256]
-0.030285668 -0.008420347 0.01494773 -0.018525738 0.008449996 0.013124808 0.032562647 -0.23396604
-0.030629065 0.1748035 -0.0016625068 0.0134843225 -0.034164738 0.026745517 -0.02918402 0.059483845
-0.006462882 0.018955018 0.023101766 -0.07238602 0.10888943 -0.049872167 -0.09685091 0.0116489595
0.20072803 0.0010573738 0.025240865 0.056501463 -0.032936115 0.033161066 0.050421532 0.07545088
0.0513002 0.018015537 -0.028925 0.042753477 0.36847973 0.03211629 0.010985544 0.122802794
0.31284642 0.04701657 0.00731187 -0.06792531 0.18611182 0.009597601 -0.11947936 0.01532527
-0.033085536 -0.032513555 -0.021757483 0.30960903 -0.016458085 0.08968843 0.040241677 0.3800947
0.0855347 -0.007887502 0.01559677 -0.17873631 -0.07297882 -0.0031725243 -0.016264793 0.29454088
0.018460518 0.26622882 0.16258205 0.03420538 0.19207 -0.116623014 0.020302463 -0.24070655
0.31276876 -0.20521471 0.04598592 -0.03817693 -0.122879975 0.047491983 -0.19907288 -0.37127188
0.046891145 -0.08537049 0.22902802 0.049284354 -0.16587952 -0.00019016051 0.048990294 -0.03215995
-0.018677613 0.3053842 0.05083486 -0.041956373 -0.02181303 0.014666287 0.28226632 0.06317628
0.07432328 -0.15478434 0.020060636 0.0058701676 -0.019696381 -0.065277316 0.030953845 -0.05460049
0.0034438572 -0.003493812 0.37086955 -0.057150636 -0.0069161057 0.16292883 0.3390957 0.15872812
-0.057001263 -0.055840906 -0.082638755 -0.050982628 -0.23407158 -0.06130261 0.022000449 0.011871924
0.16673216 -0.0042330404 -0.014715366 0.34007385 -0.071094766 -0.20149581 0.0034701403 -0.06576973
-0.19750336 -0.09335819 -0.014874242 0.041019395 -0.056208625 -0.09894527 0.01381939 -0.06415025
-0.030922584 -0.05065642 -0.01747103 0.061051093 0.02403601 -0.0066012875 -0.01493136 -0.023015818
-0.013723786 -0.04045947 0.0355207 -0.21142708 0.059085116 -0.010535208 0.052806262 0.29919714
-0.0780882 0.34854886 0.032416523 0.10835247 -0.38459846 0.16445579 -0.010714233 -0.03623389
0.059022006 0.04385456 0.024188973 0.028285358 0.03287488 -0.004647037 0.015305422 0.16470113
0.005090105 -0.0054716878 -0.003178127 0.039946757 -0.013427614 0.11854816 0.04490972 0.010317158
0.02774501 0.034292288 0.030972542 0.05859733 0.011055373 -0.22127458 0.052404873 0.00440207
0.0073959487 0.3195739 0.023348479 -0.0039345715 -0.07062491 -0.33663705 -0.0704454 0.03935406
-0.049811337 0.30618545 -0.013080275 0.004827604 0.20444402 -0.011543562 -0.080279954 0.02082975
0.04385194 -0.0013994798 0.11543339 0.2628957 -0.00024382124 -0.13506602 0.38574582 -0.09353254
-0.077490985 0.27159628 0.020590905 -0.05889803 0.04736146 0.0028268097 0.120555416 0.05911716
-0.057812307 0.10530841 0.025072472 0.41779697 0.25891942 -0.017589025 0.04742292 0.2740229
0.07148677 -0.028208299 -0.06494026 -0.029561318 -0.029338613 -0.004281511 -0.020440325 -0.029197996
-0.0008222237 -0.025168143 -0.04941897 0.20712268 0.06879157 0.3979269 -0.013180473 0.012632418
-0.00627427 0.0023870633 0.003603585 0.33095688 0.0006184665 0.013036251 0.019868288 -0.0014043646
-0.020614257 -0.006082234 -0.109127775 -0.0011622112 0.0045418856 -0.04541942 -0.019137863 -0.017946538
00000000: a619 f8bc 7ff5 09bc 53e7 743c 4ac3 97bc
00000010: da71 0a3c 6f09 573c 6960 053d cb94 6fbe
00000020: cee9 fabc b0ff 323e 79e8 d9ba 59ed 5c3c
00000030: 53f0 0bbd 6a19 db3c 5313 efbc 55a5 733d
00000040: 95c6 d3bb 8e47 9b3c ea3f bd3c 1f3f 94bd
00000050: 6c01 df3d c246 4cbd c559 c6bd 47db 3e3c
00000060: a68b 4d3e 9497 8a3a eec5 ce3c 146e 673d
00000070: 05e8 06bd e6d3 073d cf86 4e3d fe85 9a3d
00000080: 2920 523d 5295 933c 1ff4 ecbc 451e 2f3d
00000090: 60a9 bc3e 5f8c 033d b6fc 333c 0880 fb3d
000000a0: 682d a03e 7294 403d 6998 ef3b 6d1c 8bbd
000000b0: 1994 3e3e 423f 1d3c 98b1 f4bd d716 7b3c
000000c0: b384 07bd ef2c 05bd c03c b2bc 1385 9e3e
000000d0: 1bd3 86bc 91ae b73d 75d4 243d c69b c23e
000000e0: d12c af3d 953a 01bc 9889 7f3c a706 37be
000000f0: eb75 95bd 20ea 4fbb be3d 85bc 10ce 963e
00000100: 833a 973c 254f 883e e97b 263e f11a 0c3d
00000110: 00ae 443e 0cd8 eebd 5a51 a63c c77b 76be
00000120: 3a23 a03e ce23 52be bb5b 3c3d 6a5f 1cbd
00000130: 7fa8 fbbd f486 423d c3d9 4bbe 5917 bebe
00000140: ee10 403d b9d6 aebd 5286 6a3e 64de 493d
00000150: 52dc 29be d365 47b9 0caa 483d 27ba 03bd
00000160: cb01 99bc 515b 9c3e 3738 503d 72da 2bbd
00000170: 3db1 b2bc de4a 703c 3685 903e 9162 813d
00000180: ce36 983d c97f 1ebe 3456 a43c 895a c03b
00000190: 4e5a a1bc 1db0 85bd eb92 fd3c c3a4 5fbd
000001a0: 56b2 613b 70f8 64bb 9de2 bd3e c916 6abd
000001b0: 80a0 e2bb d1d6 263e f49d ad3e a089 223e
000001c0: 287a 69bd 6fb9 64bd 823e a9bd 29d3 50bd
000001d0: 76b0 6fbe 7218 7bbd 493a b43c 7582 423c
000001e0: d6bb 2a3e 51b5 8abb b818 71bc 291e ae3e
000001f0: 229a 91bd eb54 4ebe 4b6b 633b 48b2 86bd
00000200: 523e 4abe 9432 bfbd 18b3 73bc f403 283d
00000210: 043b 66bd d1a3 cabd b96a 623c 3561 83bd
00000220: 5c51 fdbc 1b7d 4fbd 681f 8fbc b610 7a3d
00000230: 2be7 c43c 9d4f d8bb aaa2 74bc ab8b bcbc
00000240: bbd9 60bc d4b8 25bd 277e 113d 5780 58be
00000250: 3c03 723d dd9b 2cbc 614b 583d 5e30 993e
00000260: b5ec 9fbd ff74 b23e 30c7 043d e6e7 dd3d
00000270: 17ea c4be 1967 283e c08a 2fbc fd69 14bd
00000280: 0fc1 713d d7a0 333d f427 c63c b2b6 e73c
00000290: cfa7 063d 2c46 98bb 98c3 7a3c 6aa7 283e
000002a0: e5ca a63b d84b b3bb 2048 50bb 369f 233d
000002b0: 7fff 5bbc 61c9 f23d 41f3 373d 4c09 293c
000002c0: 8149 e33c 1276 0c3d 21ba fd3c c103 703d
000002d0: 9821 353c ce95 62be 7ea6 563d 3d3f 903b
000002e0: b759 f23b 319f a33e 4f45 bf3c 94ed 80bb
000002f0: cba3 90bd b15b acbe ae45 90bd b931 213d
00000300: f906 4cbd 57c4 9c3e a64e 56bc e130 9e3b
00000310: c659 513e 3521 3dbc d169 a4bd 27a3 aa3c
00000320: 189e 333d c06e b7ba 5768 ec3d 449a 863e
00000330: 44aa 7fb9 bf4e 0abe 7a80 c53e fd8d bfbd
00000340: 98b3 9ebd ab0e 8b3e 42ae a83c 103f 71bd
00000350: 17fe 413d ff41 393b c2e5 f63d d624 723d
00000360: 99cc 6cbd f0ab d73d c964 cd3c 7ce9 d53e
00000370: 1691 843e dc16 90bc 893e 423d bb4c 8c3e
00000380: a867 923d 1715 e7bc 66ff 84bd 942a f2bc
00000390: 8857 f0bc eb4b 8cbb 7872 a7bc a330 efbc
000003a0: 808a 57ba 6c2d cebc 8c6b 4abd f817 543e
000003b0: 98e2 8c3d 13bd cb3e e9f2 57bc 34f8 4e3c
000003c0: 6498 cdbb 4770 1c3b 202a 6c3b 2e73 a93e
000003d0: 9620 223a 0096 553c d2c2 a23c a812 b8ba
000003e0: 3bdf a8bc 7a4d c7bb 627e dfbd 5655 98ba
000003f0: 19d4 943b b709 3abd 02c7 9cbc 9e04 93bc

lin1.bias f4 [80]
-0.002235647 0.13122243 0.10863678 0.07699378 -0.03508082 0.0565434 -0.008991096 -0.028917326
0.13501589 -0.023637561 0.0798822 -0.0025718985 -0.06654815 0.05163149 0.0086697405 0.116181
0.05618103 0.06974769 0.05064796 0.0883857 0.075282805 -0.0135831535 0.051071476 -0.039452087
0.053316467 0.06360204 -0.03929522 0.08264819 0.060525242 0.07423501 0.05968345 0.021377457
0.023819642 0.0061143106 -0.028495474 0.012802755 0.14826159 -0.037137907 0.076587476 0.08585736
0.025296252 0.026057804 0.03701918 -0.065275975 -0.03131811 -0.004559856 0.06976002 -0.041012816
0.045094814 0.091724105 0.115778804 -0.034776222 0.04370713 -0.010845567 0.050758228 -0.00852348
0.048137724 0.009048573 -0.009214576 -0.05094304 0.03715336 -0.031931795 0.00912923 0.055391878
-0.064484514 0.117511176 0.0058320295 0.009798389 0.04067165 0.05914049 0.010162795 0.030801293
0.064372815 0.03213861 -0.041492753 0.012218806 0.06745977 0.07151593 -0.021622192 -0.050804712
00000000: ef83 12bb 2c5f 063e f67c de3d eaae 9d3d
00000010: e8b0 0fbd 0d9a 673d 644f 13bc 07e4 ecbc
00000020: 9b41 0a3e 8fa3 c1bc 4799 a33d 4c8d 28bb
00000030: 654a 88bd 8b7b 533d 870b 0e3c 4ef0 ed3d
00000040: 141e 663d e0d7 8e3d 3c74 4f3d 9003 b53d
00000050: df2d 9a3d e08b 5ebc 5330 513d 8398 21bd
00000060: 5e62 5a3d c941 823d 06f4 20bd 7443 a93d
00000070: 51e9 773d 8608 983d a276 743d c71f af3c
00000080: 6921 c33c 8e5a c83b 576f e9bc a6c2 513c
00000090: e3d1 173e eb1d 18bd e5d9 9c3d fcd5 af3d
000000a0: 163a cf3c 2d77 d53c 6ca1 173d 69af 85bd
000000b0: 6b47 00bd d86a 95bb 57de 8e3d 0efd 27bd
000000c0: 57b5 383d d9d9 bb3d 701d ed3d 8371 0ebd
000000d0: 3f06 333d 9bb1 31bc dce7 4f3d 11a6 0bbc
000000e0: 102c 453d 7740 143c bcf8 16bc a6a9 50bd
000000f0: 1f2e 183d eaca 02bd c492 153c 98e2 623d
00000100: 7510 84bd b3a9 f03d 9c1a bf3b 6c89 203c
00000110: 5197 263d 4c3d 723d da81 263c fe52 fc3c
00000120: e5d5 833d c6a3 033d 4ef4 29bd 6331 483c
00000130: 5928 8a3d f276 923d 0621 b1bc 9a18 50bd

outp.weight f4 [6, 80]
-0.015198098 0.15577398 0.16645949 -0.08621941 0.18061452 0.10188605 -0.38134652 -0.10918307
0.12025343 0.13475183 0.20352858 -0.3789566 0.14439899 0.19047469 -0.35730076 0.18080482
0.14147568 0.10472547 0.18932146 0.11692788 0.16885206 -0.17573728 -0.27495608 0.01825457
0.11029359 0.10298087 0.09774496 0.18601677 -0.2012568 0.026229111 -0.0830257 -0.030567488
0.11150816 -0.39662555 -0.106726296 -0.38454282 0.13306415 0.090498924 0.10598011 -0.09110523
0.21093346 0.14119042 0.24684031 -0.054605756 -0.23310493 -0.38948053 -0.07859983 0.03935856
0.1515294 0.20602196 0.115596324 0.17291428 0.106623635 0.09946856 0.09799933 0.019595439
-0.043797363 -0.4619912 0.14560083 0.14507289 -0.26408723 0.07546178 -0.17963697 0.22063828
-0.084197916 -0.43787166 -0.021213796 -0.4777755 -0.16809534 -0.23250483 -0.35227922 0.085150026
-0.054647643 -0.22677606 0.11175388 0.18581209 -0.21011882 0.13197757 -0.14005336 0.19268486
-0.5979164 -0.16609111 -0.2933598 0.1641477 -0.25711948 -0.2899967 0.16004121 -0.07345487
0.19088568 0.1768515 -0.11208831 0.09795502 -0.24643216 -0.04174312 0.08681952 -0.21395752
-0.27392876 -0.28278083 0.082822286 -0.1855798 -0.24360894 0.16073066 -0.22260931 0.4239866
-0.33769065 0.15362139 -0.4437105 -0.092695765 0.22134076 0.17368938 0.07684042 0.13970052
-0.2467698 -0.027752146 0.24890268 0.17438066 -0.20555472 -0.39085767 -0.5483902 0.13149875
0.109848544 -0.32370436 0.23269476 0.06234555 0.21034262 0.15207034 0.2010977 0.28790164
0.014777385 -0.1353932 -0.23816971 0.23977843 -0.44354883 -0.007612539 0.19236855 0.082936265
0.074715935 0.0585046 -0.5621784 0.3914605 -0.13860586 -0.30098236 -0.39761084 0.16677897
-0.039252315 0.14035048 0.16603255 0.13247311 0.192403 0.17877783 0.14819632 0.1634486
0.13685206 -0.52101517 -0.36855292 0.15351729 0.28594518 -0.20656638 -0.29176247 -0.13341789
0.015249121 0.17588523 0.19477935 -0.12636496 -0.20828629 0.12372287 -0.39720806 -0.45045176
0.23670903 -0.1469014 0.22599867 -0.25524127 -0.41563112 0.20321576 -0.36452267 0.1797757
0.22876926 0.11888316 -0.36163092 0.14561841 0.18940826 -0.17288388 0.14124826 -0.09593897
0.09550325 0.16383618 -0.56683403 0.22410801 0.08671614 0.11861583 0.2525874 -0.5228691
0.07708005 0.44792682 -0.111290075 -0.3272142 0.13198133 -0.60583067 0.06322719 0.3769282
-0.34620023 0.14556734 -0.0027952895 -0.10867964 -0.12644814 0.088812836 -0.17806615 -0.2320525
-0.32171634 0.22226875 0.13436776 -0.13548516 -0.074226186 -0.57868844 0.16475971 -0.46801686
-0.5236784 -0.329972 0.025101481 -0.006797705 0.16111048 -0.48291036 -0.2821349 -0.32744625
-0.05438814 0.13723025 -0.28135246 -0.36490268 -0.25482962 -0.0965336 -0.35247314 -0.20423207
0.08903588 -0.31618828 0.06628149 -0.0878508 0.22800215 0.14582793 -0.34767178 -0.058184665
0.17929319 -0.2844475 -0.2025009 0.16239844 -0.14354916 -0.3164756 0.17171977 0.13116829
-0.18622312 0.13911746 -0.28076246 0.10231523 0.16553645 -0.25232568 0.11035033 -0.30557564
00000000: 7101 79bc 3783 1f3e 5b74 2a3e cd93 b0bd
00000010: 03f3 383e a2a9 d03d da3f c3be 609b dfbd
00000020: 6e47 f63d 62fc 093e cc69 503e 9906 c2be
00000030: 54dd 133e cc0b 433e 20f0 b6be e624 393e
00000040: 00df 103e 4f7a d63d 7cdd 413e e277 ef3d
00000050: 8ee7 2c3e 79f4 33be 0bc7 8cbe 9c8a 953c
00000060: 9be1 e13d a2e7 d23d 822e c83d 2e7b 3e3e
00000070: 4316 4ebe 6fde d63c 6109 aabd ab68 fabc
00000080: 645e e43d 8112 cbbe 5193 dabd cce2 c4be
00000090: f841 083e 8057 b93d 1a0c d93d 6195 babd
000000a0: f1fe 573e 3994 103e b5c3 7c3e 49aa 5fbd
000000b0: 0fb3 6ebe fe69 c7be f3f8 a0bd 7136 213d
000000c0: 862a 1b3e 6cf7 523e c4bd ec3d 7110 313e
000000d0: 7e5d da3d 2cb6 cb3d dfb3 c83d 9d86 a03c
000000e0: dd64 33bd 1c8a ecbe 6218 153e fd8d 143e
000000f0: 7136 87be b58b 9a3d c1f2 37be 00ef 613e
00000100: f56f acbd b730 e0be 8ec8 adbc fe9e f4be
00000110: 2f21 2cbe bf15 6ebe f15d b4be 2363 ae3d
00000120: 35d6 5fbd fc37 68be 38df e43d 8645 3e3e
00000130: 6329 57be 2125 073e 266a 0fbe 2e4f 453e
00000140: 0d11 19bf ca13 2abe 4133 96be 5616 283e
00000150: 2aa5 83be 737a 94be d8e1 233e 826f 96bd
00000160: 8977 433e 8f18 353e 8e8e e5bd a49c c83d
00000170: b658 7cbe d5fa 2abd 6fce b13d ae17 5bbe
00000180: 6440 8cbe a6c8 90be bb9e a93d a208 3ebe
00000190: 9f74 79be 9496 243e b2f3 63be c614 d93e
000001a0: cae5 acbe ed4e 1d3e 062e e3be 47d7 bdbd
000001b0: 27a7 623e a1db 313e 835e 9d3d a70d 0f3e
000001c0: 39b1 7cbe 7858 e3bc 58e0 7e3e d890 323e
000001d0: f07c 52be 7f1e c8be 4d63 0cbf 9ca7 063e
000001e0: 46f8 e03d 94bc a5be 8947 6e3e 0c5e 7f3d
000001f0: 0e64 573e 54b8 1b3e 8eec 4d3e d867 933e
00000200: d81c 723c 84a4 0abe c3e2 73be 7a88 753e
00000210: d518 e3be 9b72 f9bb 43fc 443e 7dda a93d
00000220: ab04 993d 85a2 6f3d ecea 0fbf 836d c83e
00000230: b2ee 0dbe 5c1a 9abe a693 cbbe 1bc8 2a3e
00000240: 09c7 20bd 09b8 0f3e 7004 2a3e 08a7 073e
00000250: 4b05 453e 8911 373e c7c0 173e 125f 273e
00000260: f222 0c3e 4061 05bf f8b2 bcbe a333 1d3e
00000270: 6867 923e 2386 53be e461 95be b39e 08be
00000280: 73d7 793c 421b 343e 3d74 473e d165 01be
00000290: 0049 55be 6b62 fd3d db5e cbbe 9da1 e6be
000002a0: da63 723e 526d 16be 326c 673e fcae 82be
000002b0: 9acd d4be cb17 503e b7a2 babe 1f17 383e
000002c0: 7d42 6a3e 0479 f33d b027 b9be fe1c 153e
000002d0: 3df4 413e 7908 31be 62a3 103e a77b c4bd
000002e0: 3597 c33d acc4 273e 091c 11bf 927c 653e
000002f0: 3b98 b13d dbec f23d 2353 813e c0da 05bf
00000300: 25dc 9d3d aa56 e53e 0dec e3bd 9f88 a7be
00000310: 1d26 073e b817 1bbf 427d 813d bcfc c03e
00000320: 2841 b1be 9b0f 153e 2d31 37bb 6e93 debd
00000330: 9f7b 01be 81e3 b53d f956 36be 2c9f 6dbe
00000340: 01b8 a4be 6b9a 633e b497 093e 9fbc 0abe
00000350: e603 98bd ed24 14bf c5b6 283e e89f efbe
00000360: ca0f 06bf 17f2 a8be 9fa1 cd3c 48bf debb
00000370: 25fa 243e 0740 f7be fc73 90be 09a7 a7be
00000380: 19c6 5ebd 1686 0c3e 6e0d 90be 86d4 babe
00000390: 0779 82be 68b3 c5bd 5c77 b4be 3622 51be
000003a0: 7258 b63d 6ee3 a1be 97be 873d 1feb b3bd
000003b0: 6579 693e eb53 153e 0902 b2be 0b53 6ebd
000003c0: a298 373e 1aa3 91be 655c 4fbe c74b 263e
000003d0: 8dfe 12be 1709 a2be 4fd7 2f3e fb50 063e
000003e0: 46b1 3ebe cf74 0e3e 19c0 8fbe a68a d13d
000003f0: 6382 293e d530 81be 5bff e13d 6974 9cbe

outp.bias f4 [6]
0.03215995 -0.06469558 0.13204162 -0.13922851 -0.059855282 0.016129583
00000000: 27ba 033d 1e7f 84bd eb35 073e eb91 0ebe
00000010: d02a 75bd 3022 843c
