results/decimation_contrast/decimation_contrast.pth (torch, 114053 bytes, 10 tensors)

con0.weight f4 [10, 1, 3]
000000 ee 82 16 bf 0b 8e 46 bf 0a 37 ad 3e 69 29 04 3f
       -0.5879353 -0.7756049 0.33831054 0.51625687
000010 27 46 a8 3e 76 76 28 3f 1e e4 3a 3f 30 6e 56 bf
       0.32866022 0.6580576 0.7300433 -0.8376188
000020 46 23 00 be 93 cb 1f bf af 22 3a 3f a9 8f 19 3f
       -0.12513456 -0.62420005 0.7270917 0.59984833
000030 f1 16 9e be bf 5c 3b 3f ac 07 04 3f a5 ac 18 3e
       -0.30876878 0.73188394 0.51574206 0.14909609
000040 84 67 09 be 9c f9 13 3d 2c 4d 20 bf 86 9d fc be
       -0.13418394 0.036126718 -0.62617755 -0.4933893
000050 ab 03 54 3d fa 5a 3c be 65 17 c1 bd 3e 55 0f bf
       0.05176131 -0.1839408 -0.0942829 -0.55989444
000060 01 86 1f 3f f2 7f cc be a0 0f e6 3e 9f 87 62 3e
       0.6231385 -0.39941365 0.44933796 0.22122048
000070 d5 44 a4 be 05 fe ea bc
       -0.32083765 -0.02868558

con0.bias f4 [10]
000000 32 7c fb 3e c9 59 05 be 73 22 62 3c 79 cf 15 3e
       0.4911819 -0.13022532 0.013802159 0.14629926
000010 36 df 44 3c 87 ce 88 be d6 4f 09 3f f7 5c d8 be
       0.012016108 -0.26720068 0.53637445 -0.42258427
000020 c9 bd 11 3d 49 9d 8e be
       0.035581384 -0.27854374

con1.weight f4 [10, 10, 5, 2]
000000 67 4e d2 bc 4a 05 f4 3d 71 09 28 bd 29 0f df 3d
       -0.02567215 0.11915071 -0.04102463 0.108915634
000010 9c dc 5a bc 8f 7e ea 3d fa 07 03 be 87 c5 64 3d
       -0.013358261 0.114499204 -0.12796012 0.05585244
000020 94 f4 60 bc 22 e0 41 bd 29 c2 8e be 8c ab 2d be
       -0.013730187 -0.04733289 -0.27882507 -0.16959971
000030 34 ea 62 be 38 49 91 be 97 d6 bb 3c 1f 91 06 3e
       -0.22159654 -0.28376174 0.022929473 0.13141297
000040 ad 15 21 3e 65 b1 03 bd e2 5b 48 3e ba 3f 45 3e
       0.15730925 -0.0321516 0.195663 0.19262591
000050 06 1f 2a 3e 64 bf 31 3c 6f ff 21 3d fb 05 9e 3d
       0.16613397 0.010848854 0.03955024 0.077159844
000060 9b 27 82 be 84 9b 29 be a2 0b 66 bd 10 98 25 3d
       -0.25420842 -0.16563231 -0.056163438 0.04042822
000070 6d af 26 3e ce 5c 29 be 4e aa d3 bd 6c ea 67 3c
       0.16277857 -0.16539308 -0.103352174 0.014155012
000080 18 54 d5 3d 58 e9 b1 bb af f6 7c 3d 7c c5 99 3c
       0.1041643 -0.005429428 0.061758693 0.018770926
000090 b6 3b 88 3d 16 a0 8c bd 35 d8 c4 3c f5 1b b9 3d
       0.06652014 -0.068664715 0.024028877 0.090385355
0000a0 4b 1e 16 bc 50 ee 84 bc d5 9b 39 3d 71 98 f7 3d
       -0.009162496 -0.016226918 0.04531463 0.12089623
0000b0 f0 93 13 be 07 d3 d3 bd 60 42 d7 3c 35 9c cb bd
       -0.14411902 -0.10342985 0.026276767 -0.099419035
0000c0 e3 e3 1a 3d 9b ba 16 3d 5f 77 96 bd a8 c1 c1 bd
       0.037814986 0.036799055 -0.07346987 -0.09460765
0000d0 33 fe 4e bc 8a 1f 60 bd ba 43 c0 bd 43 a6 23 bd
       -0.012633848 -0.054717578 -0.09387918 -0.03995348
0000e0 da 30 89 bc 8d 7d b5 3c 1a 5d 95 bc 40 76 6f 3d
       -0.016746927 0.022154594 -0.01823287 0.05846238
0000f0 d4 07 c3 bd cc 02 da ba 3b 5e b3 3c b1 e5 57 bd
       -0.095229775 -0.0016632914 0.021895519 -0.052709285
000100 10 97 cf bd 41 d7 02 3e 5a 47 10 be 8f 80 84 3d
       -0.10136235 0.12777425 -0.14089718 0.06469833
000110 07 f9 48 bc 5d c2 b1 3d 62 93 9f 3d 73 90 10 bd
       -0.012266404 0.0867965 0.07791783 -0.035294008
000120 e7 29 9e 3b cd 8c 59 b9 07 c8 bb 3d c3 6d ab bd
       0.0048267725 -0.00020747185 0.091690116 -0.08370545
000130 f3 e6 45 bd 5a 48 9d bd 8d 15 7e bd 9d 43 59 3d
       -0.048315953 -0.076798156 -0.06203227 0.053042997
000140 4a 0c 0d 3e bb e6 4e be b0 6b 4a be 26 5d 3c bd
       0.13774219 -0.20205204 -0.19767642 -0.04598727
000150 23 3e 0a bd 0a 71 2d be be b9 7e 3e b9 73 68 3d
       -0.033750664 -0.16937652 0.24875543 0.056750987
000160 36 21 e0 3e 37 62 83 3e 50 83 a4 bd ad e2 ad bc
       0.43775338 0.2566087 -0.08032858 -0.021226251
000170 00 99 fd bb 5d 51 0a 3d 00 1a 84 bc cf 06 c3 3d
       -0.0077391863 0.033769 -0.016125679 0.09522783
000180 87 f1 1a 3d 37 4e 8e 3d ad 56 b0 bd 60 52 c2 3d
       0.037827995 0.06948512 -0.08610282 0.09488368
000190 a8 a5 28 3c 69 b2 c1 bd db b1 7e bd 1b b1 da bd
       0.010293402 -0.09457857 -0.062181335 -0.106783114
0001a0 d1 72 c9 bc aa e7 97 bd 8b 32 cb bd 6c 18 1b 3d
       -0.024590882 -0.07417233 -0.0992175 0.037865087
0001b0 48 62 79 bd 21 53 ba 3c 1b 2a 81 3c d8 6e b0 3d
       -0.060884744 0.022744717 0.015767148 0.08614892
0001c0 ca e5 c2 bd b2 28 9f 3d 06 06 38 bc e0 fe 3b 3d
       -0.09516485 0.07771434 -0.011231905 0.045897365
0001d0 35 59 19 bd d7 11 b1 bd e2 92 12 bd ed ac a5 bc
       -0.03743859 -0.08645981 -0.03578461 -0.020224059
0001e0 cd a1 15 bc 61 29 15 3d d7 4b ad bd e5 22 7f 3c
       -0.009132815 0.036416415 -0.08461731 0.015572284
0001f0 bb 91 c0 bd 9a 4f a6 bd fa 0e af bc 6d 86 b4 3d
       -0.09402796 -0.081206515 -0.021369446 0.08814702
000200 29 8d 62 bd ab dd b5 3d a9 27 4a 3d 77 0d ad bd
       -0.055310402 0.088801704 0.04935423 -0.08449834
000210 f6 6f 9b bd 4d 5e ed 3c 4b fd 89 3d 7a 4c 6c 3c
       -0.07589714 0.02897563 0.06737765 0.01442253
000220 4d b1 9f 3d 05 78 89 bd b7 9d 81 bd 18 1a 9a 3d
       0.07797489 -0.06712345 -0.0632891 0.07524508
000230 43 9e 2a bd 33 33 af bc 42 f6 31 bd 48 b2 81 bd
       -0.041654836 -0.021386718 -0.04344774 -0.063328326
000240 32 81 c5 3d cf 1f 63 3d dc 24 83 bd 9b 6d af 3d
       0.09643783 0.055450257 -0.06403515 0.085658275
000250 ea 27 96 bd 93 37 46 3d 40 07 22 3c 8a 78 93 bd
       -0.07331832 0.048392843 0.009889424 -0.072007254
000260 00 a7 8d 3d 0d e4 a1 3d 73 86 30 3d 7d 14 19 bd
       0.06916618 0.07904825 0.04309697 -0.037373055
000270 87 09 a7 3d b8 c1 96 bd 53 4d 23 3d 90 3a 62 3d
       0.08156114 -0.07361168 0.039868664 0.05523163
000280 66 18 b9 bc 64 ad bf bd 57 7d 2c bd f2 dd 44 3d
       -0.022594642 -0.093592435 -0.04211172 0.048063226
000290 87 69 96 3d bd 66 51 3d 3c 8d 07 bd 26 ac d2 bd
       0.073443465 0.05112337 -0.033093676 -0.10286741
0002a0 a6 e6 2c bc a4 da 3b bd d8 26 8b bd 5a dc c7 3c
       -0.010553038 -0.04586281 -0.06794518 0.024397064
0002b0 67 0e 24 ba 1d b0 75 3d 0d 8d 53 bd 13 d3 c7 bd
       -0.00062582496 0.059982408 -0.05164819 -0.09757056
0002c0 7a 91 86 bc a7 d7 84 3d 33 30 62 3b 0a 62 1b 3d
       -0.01642679 0.06486445 0.0034513592 0.037935294
0002d0 5a 82 72 bd bc 92 d6 bd cf a9 d7 bb 4b f8 41 3d
       -0.059206344 -0.10477206 -0.006581522 0.04735593
0002e0 4d 05 3e 3d 92 96 c9 bd 95 4a c1 bd 7f ee 2f bd
       0.046391774 -0.09843172 -0.094380535 -0.042952057
0002f0 64 f5 4a 3d e6 29 0d bc 63 fe 34 3d 80 50 66 bc
       0.04955043 -0.008615946 0.044187915 -0.014057279
000300 9a c9 d6 3a 58 0e 84 bd 33 da b6 3b c2 86 9e 3d
       0.0016386986 -0.06448048 0.0055802106 0.07740547
000310 a0 8d a6 bd 6f b8 c5 3d da 46 87 bd 7a 5a a7 bd
       -0.081324816 0.096543185 -0.06605311 -0.08171554
000320 52 a2 20 3d 1b a8 37 3d a6 48 3b bd 8a 3f be bd
       0.0392173 0.044838052 -0.04572358 -0.09289463
000330 df 74 57 3d 75 4c e3 3d 5c 12 8d bd b6 a0 af bc
       0.05260169 0.110985674 -0.068882674 -0.021438938
000340 93 ca a3 3c ba 74 50 3e 11 9f 42 3c ed d1 2e 3e
       0.019994056 0.20357028 0.011878745 0.17072268
000350 69 56 52 3d af ed da bc 1b 84 ed bd 9f 52 99 bd
       0.05135194 -0.026724664 -0.11597463 -0.07486462
000360 80 be 9c 3d 6b cc 37 3b 52 30 45 be e7 52 6a bd
       0.076535225 0.0028045427 -0.19256714 -0.057207968
000370 d3 e0 b9 bd 75 39 a0 bd 5a 99 58 bd 8d 24 41 3e
       -0.09076085 -0.07823459 -0.052880622 0.188616
000380 19 80 56 3e 0e 9f 4f 3e e3 d1 9c bc b3 44 f0 bd
       0.20947303 0.20275518 -0.01914305 -0.11731853
000390 c1 76 f9 bd 90 69 bf bd d9 55 ce bb 3f 68 72 bd
       -0.12180854 -0.09346306 -0.006296855 -0.059181448
0003a0 06 e1 f1 3d 4c d3 62 bd ab c4 01 3e 06 60 ec 3d
       0.11810498 -0.05537729 0.12672679 0.115417525
0003b0 86 11 14 bd ac bf be bd 0f db d9 bb 05 fb 5d 3c
       -0.036149524 -0.09313902 -0.0066484283 0.013548617
0003c0 20 f0 67 be e5 6e 3a be c2 74 94 3e 4a f8 82 3b
       -0.22650194 -0.18206365 0.2899533 0.0039968835
0003d0 56 15 54 3e 0f b5 cc 3d 08 9f 08 bd a2 37 28 3d
       0.20711264 0.09995472 -0.03335479 0.04106868
0003e0 0c dc 49 be 7f 1b c8 bb 9a f7 41 bb e0 04 fd 3c
       -0.19712847 -0.0061067934 -0.0029597045 0.030886114
0003f0 8d fe c8 bd 27 19 35 3c cb 0a 88 3d 0a d2 21 3d
       -0.09814177 0.01105336 0.066426836 0.03950695

con1.bias f4 [10]
000000 47 2f d6 bb 14 65 06 3c b6 a9 c7 3d c5 54 d3 3d
       -0.0065363976 0.00820281 0.09749167 0.10318903
000010 54 f3 90 3d d5 0a 9c bd 3e 4e 3c bd 43 50 25 bd
       0.07077661 -0.076192535 -0.045973055 -0.040359747
000020 35 e4 a5 3d db 61 67 bd
       0.08100168 -0.056489807

lin0.weight f4 [256, 20]
000000 24 1b 8e 3e 65 53 81 bc 9e 12 fd bd 1c b3 3c 3e
       0.27755082 -0.015786836 -0.123570666 0.184277
000010 6b 1b 5d bd 64 93 3a bd 74 80 54 3d 6e 1d 83 3d
       -0.053981226 -0.04555072 0.051880315 0.06402098
000020 2f 7a a3 3d e2 57 87 3c ad 95 01 3e a5 06 cb 3d
       0.07982289 0.016521398 0.12654753 0.09913377
000030 f3 4e 0a 3d d8 48 41 3e 56 34 fe bc 6d a5 0f be
       0.033766698 0.18875444 -0.031030815 -0.14027949
000040 cc 11 3f bd 15 89 18 be 41 9e 95 3e 54 ec 6a be
       -0.04664783 -0.14896043 0.292223 -0.22941715
000050 08 66 f3 3b f7 7c ba bd d1 3c 5a be a9 8c 0f bd
       0.0074279346 -0.091058664 -0.21312262 -0.035046253
000060 e1 01 f8 bd 76 2b 52 3e 34 f8 8d bd 72 6a 51 be
       -0.121097334 0.20524392 -0.069321066 -0.20450762
000070 e5 9e 27 3e 78 2b 97 3d e9 4d 55 3e 05 44 df 3d
       0.16369207 0.07381338 0.20830502 0.109016456
000080 51 99 ac 3e ba 89 4c be 8e 69 18 be cb ea 1f bd
       0.3371072 -0.19974414 -0.14884016 -0.039042275
000090 8e 21 7f bd 6d 65 20 be 01 32 78 bd d6 99 b9 be
       -0.06228786 -0.15663691 -0.060594562 -0.3625018
0000a0 7c f1 55 be 64 f4 70 3e ae a8 29 be 23 cf 46 3e
       -0.208929 0.23530728 -0.16568252 0.19414954
0000b0 d6 93 1f 3e e1 5c 6b be 8a 8a 13 bd 2f 74 8f 3e
       0.15583739 -0.22984649 -0.036020793 0.2801833
0000c0 5c 9a 2e 3d 49 29 77 be 17 89 60 be 64 51 c5 3d
       0.042627677 -0.24136843 -0.21927296 0.09634665
0000d0 fc 03 2c 3e 2c 4f 80 3e 18 86 54 3e 1e 61 54 bd
       0.16798395 0.25060403 0.20754278 -0.05185043
0000e0 10 cc 14 be a9 b4 0f 3e 44 1a 9a 3e 9e dc 0b 3e
       -0.14530969 0.1403376 0.30098164 0.13658378
0000f0 ac e8 b7 be e7 fd 16 be 1b 13 ed 3d f4 d8 2b 3e
       -0.35919702 -0.14745294 0.1157591 0.1678198
000100 10 c9 f8 3c 2b ef 2a 3e 88 17 e2 3b df 44 0f be
       0.030369312 0.16692798 0.006899778 -0.13991116
000110 c9 6d 5e 3e f7 47 f8 3c 8c 91 33 be 4d ef 82 3d
       0.21721567 0.030307753 -0.1753599 0.06393299
000120 d2 53 b1 3d 7a 09 1c be 52 69 2e be ed fc 3a 3d
       0.086585656 -0.1523799 -0.17032364 0.045651365
000130 b7 c9 9c 3d 2c 0f 84 bc b7 3c 58 be 35 27 52 be
       0.076556616 -0.016120516 -0.21116911 -0.20522769
000140 66 ce 52 be 7a cd ac 3e 8d f9 78 bd 2b fc b4 3d
       -0.20586547 0.33750516 -0.060784865 0.0883716
000150 62 42 d2 3d 0d 4b 36 3e 6d d9 ed bd 1d 28 60 3e
       0.10266568 0.17802067 -0.11613736 0.21890302
000160 50 98 8d 3e 8f 1d 25 3e 89 fc 73 3d f5 07 4d be
       0.27655268 0.16124557 0.05956701 -0.20022567
000170 43 81 99 bd f6 c2 75 be 96 85 66 bc 3e 78 47 3e
       -0.07495358 -0.24000153 -0.014069935 0.19479463
000180 d3 97 92 bd 13 e6 17 bd df b9 1e 3e e1 68 c7 3d
       -0.071578644 -0.03708465 0.15500592 0.09736801
000190 61 63 3b be 46 91 dd bd 74 ae ae 3d 2c 73 7a 3d
       -0.18299629 -0.10818724 0.08529368 0.061144993
0001a0 d6 6c 11 be e9 ed 23 3e 4c d4 20 3e 4e b4 83 3d
       -0.14201674 0.16008724 0.15705985 0.06430875
0001b0 11 4f 9b 3d fd 06 54 3e 4d 2b 13 be cc e5 49 be
       0.0758344 0.20705791 -0.14371987 -0.19716567
0001c0 df fe 30 3e 55 7e 9d be 73 f5 b6 bd c3 83 f0 3d
       0.17284726 -0.30760446 -0.089335345 0.117438816
0001d0 04 c3 09 bd 8a cf 19 bd 62 71 75 be 5f 7c 2d be
       -0.033633247 -0.03755144 -0.23969033 -0.16941975
0001e0 83 c0 6c 3e 9d 41 16 3e da b1 5a 3e c4 94 be 3d
       0.23120312 0.14673467 0.21356907 0.093057185
0001f0 34 af 26 3e cf 41 42 be 0b c4 49 3b 5d 00 ee bd
       0.16277772 -0.18970416 0.0030787017 -0.11621163
000200 b9 2b 3e bd 59 94 45 3e 34 14 43 bd d6 34 cc bd
       -0.046428416 0.19294871 -0.04762669 -0.09971015
000210 33 f9 0a be f1 26 6b 3d 6a e6 36 3c 36 ee 93 3c
       -0.13571624 0.057410184 0.011163333 0.018057924
000220 42 3d fd 3b 00 f6 81 be 8b 57 0e 3e c1 92 81 3e
       0.0077282498 -0.25382996 0.13900582 0.25307277
000230 6e a7 7c 3d c7 a8 91 be 5b 68 92 3d c4 75 bd bc
       0.06168311 -0.2844908 0.071488105 -0.023127444
000240 4b dc 63 be e2 29 7e 3e ff ac d3 bd 96 e7 0a bc
       -0.22252004 0.24820665 -0.10335731 -0.008478066
000250 c7 cf 1b 3e 61 86 80 3e 17 fc 20 be 68 11 a4 3a
       0.1521598 0.25102523 -0.15721165 0.0012517394
000260 dd ec 07 be a3 29 db bc aa 3a e8 bb 70 36 7f 3e
       -0.1327395 -0.026753252 -0.0070870714 0.2492311
000270 ab 52 8b 3e d9 cd 09 bd 08 83 94 3d 0a 74 8e 3d
       0.27211508 -0.033643577 0.07251555 0.069557264
000280 35 88 8f bd b6 77 38 be b9 75 1c 3e 91 d6 16 3d
       -0.07008401 -0.18014416 0.15279283 0.03682572
000290 0e 09 8c bd 89 a9 59 3e 43 eb 85 3e 61 79 4a bd
       -0.068376645 0.21256079 0.26156053 -0.049432162
0002a0 9d 4c 94 3e cb 55 83 3d 0b 92 0a bd 21 37 0f 3c
       0.289647 0.06412848 -0.033830684 0.008741171
0002b0 41 8d 47 3e 22 15 40 be a8 31 79 bc 4b d5 80 3e
       0.19487478 -0.18758062 -0.015209593 0.2516273
0002c0 95 1c a7 3e c3 c1 ac 3c 5b 0b 83 be 09 23 ac be
       0.32638994 0.021088487 -0.255946 -0.3362048
0002d0 47 ed 35 3c 04 0f 21 3e 5f b7 15 3e 24 d7 92 3d
       0.011103935 0.15728384 0.14620732 0.07169941
0002e0 84 8b 8a 3d 3d 8b 80 3e c5 23 9b 3e 39 13 e4 3b
       0.06764892 0.2510623 0.30300727 0.0069602993
0002f0 c2 47 95 bd 63 06 9a be 7f 9c bf 3d a1 a3 27 3e
       -0.07289077 -0.30082998 0.09356021 0.16371013
000300 6d 0c 09 3e 8e 1f a6 3b 22 31 92 bc 28 2e 62 bd
       0.13383646 0.0050696796 -0.017845694 -0.0552198
000310 fb 93 4e be 39 30 98 be b8 18 53 3e 7f d7 53 3d
       -0.20173638 -0.2972429 0.20614898 0.051719185
000320 04 b5 3b 3e 04 ba 0a bc 71 42 44 3e aa 58 36 3e
       0.1833077 -0.008467201 0.1916597 0.1780726
000330 6b ca 3d be 9b c9 31 3e e7 4f 50 3d 77 42 23 be
       -0.18534248 0.17362063 0.05085745 -0.15943323
000340 b5 d7 2d be 2d 95 06 be fb 83 ae 3d 66 38 f2 3c
       -0.16976817 -0.13142844 0.08521267 0.029567908
000350 a8 34 2a be 21 1e 09 be f5 3c 40 be 43 a7 57 3e
       -0.1662165 -0.133904 -0.18773253 0.21059899
000360 61 04 04 bd 58 fe 10 be 8a 4d 93 3d 76 96 65 bd
       -0.03223074 -0.14159524 0.07192524 -0.056051694
000370 58 92 5c be 44 7d de be 7c 6a c9 bd 04 5f 35 be
       -0.215402 -0.43454945 -0.098347634 -0.17712027
000380 8f d5 5e be 15 af 10 3e 7a 0b 10 3e 50 74 7d 3d
       -0.21761154 0.14129288 0.14066878 0.061878502
000390 14 a0 1d 3e 85 a6 81 3e af 64 c9 3c 99 86 6c bd
       0.15393096 0.25322357 0.024584142 -0.05774555
0003a0 74 0b df 3d fc 12 14 be 00 43 4e 3d 2b 5a d5 3d
       0.108908564 -0.14460367 0.050356865 0.10417589
0003b0 05 29 a6 3e 4e 42 bd bd b5 e5 61 be 40 aa de bd
       0.3245317 -0.09241162 -0.22060283 -0.10872316
0003c0 05 14 19 be 0b da 03 3c f8 2f 36 be 16 47 56 bc
       -0.14949043 0.008047591 -0.17791736 -0.013078472
0003d0 b3 61 f2 bd 6f e2 60 3e 33 0b 23 3e 1b 2d 22 3e
       -0.11835041 0.21961378 0.15922241 0.15837519
0003e0 32 d9 9a 3e d8 61 92 bd 24 a4 5d bd 4e 9d 17 3e
       0.30243832 -0.071475685 -0.054111615 0.148061
0003f0 7c 9a 05 3e 52 22 91 be 92 31 97 3b 72 a9 aa 3e
       0.13047212 -0.28346497 0.0046140635 0.33332402

lin0.bias f4 [256]
000000 8e da ff bd fe 42 7d 3e a0 e6 67 bd ea 9f 61 3e
       -0.12492858 0.24732587 -0.056616426 0.22033659
000010 8f b0 19 bd 43 99 06 3e 45 5f 08 bc 07 64 07 be
       -0.037521895 0.13144402 -0.008323495 -0.13221751
000020 df 39 50 bd 42 42 00 be 90 91 1d be 92 57 c7 bc
       -0.05083644 -0.12525275 -0.15387559 -0.024333749
000030 dd 8a 36 3d 35 ca 42 be 4b b4 c5 3d 6e c6 30 3e
       0.044566024 -0.19022448 0.09653529 0.17263195
000040 3a 5f 32 be 0e c5 61 be e3 45 cd bc 70 dc 14 3e
       -0.17419139 -0.22047827 -0.025057739 0.14537215
000050 ff 38 e5 bd 3c d1 ab 3d 50 bd 0d bd 73 89 4c 3e
       -0.11192512 0.08389518 -0.03460437 0.19974308
000060 6f 57 bb 3c 76 91 e7 bd 2c e3 aa 3d 66 f1 2c 3c
       0.02286884 -0.11307041 0.08344111 0.010555601
000070 09 43 32 3e 75 2c 7f 3d 69 e2 2d 3e 5d 3b df bb
       0.17408384 0.062298257 0.169809 -0.0068124966
000080 d6 f7 05 3e 8a ad 1d 3e df a4 5b be 42 63 3a 3d
       0.13082823 0.15398231 -0.21449612 0.045504816
000090 12 87 f9 3c c8 3e 6d bd a4 2a 5f be ed 1c c6 3d
       0.030459914 -0.0579212 -0.2179361 0.09673486
0000a0 b5 83 59 3e 45 f6 2a 3d 94 14 21 be 7c 52 a8 3d
       0.21241648 0.041738767 -0.15730506 0.08218858
0000b0 55 38 4d be bb 20 f3 3d 55 9e 63 3e f4 75 2f bd
       -0.2004102 0.11871477 0.22228368 -0.0428371
0000c0 5e 7d f4 3d 19 5f 2c bd b5 a3 52 be f3 5c 36 3d
       0.119379744 -0.04208288 -0.20570262 0.044522237
0000d0 36 d1 ae 3d fc a4 2e 3e 32 6c 7d 3d 5f ee e3 3d
       0.085359976 0.17055124 0.06187076 0.1112945
0000e0 c2 63 5f 3e b4 71 5b bd 06 bf 1e 3e 25 99 2d 3e
       0.21815398 -0.053575233 0.15502557 0.16952951
0000f0 ad 6e d4 3d ef 03 38 3e 7a 68 35 3e 5a a5 73 3e
       0.10372672 0.1797025 0.17715636 0.23793545
000100 ad 9c 97 bd 3d 9a 3e 3e 07 3d f4 bc 2f 8e cd 3d
       -0.074029304 0.18613525 -0.029814256 0.10036885
000110 d9 9a 89 b9 49 4c 32 be 6d ae 15 be 3f 1b 4b 3e
       -0.00026246047 -0.17411913 -0.1461732 0.19834612
000120 5b 11 3b 3e 0c b4 0b 3d 17 98 2d be a2 af 3b bc
       0.1826834 0.034107253 -0.16952549 -0.011455448
000130 f5 2d e4 3d ed 95 a8 3d 4a 37 2b 3e 19 ce c2 bc
       0.11141578 0.08231721 0.1672031 -0.023779916
000140 43 ae 97 3d 9f 9c d0 bd ff 0b 45 be c8 2e 08 3e
       0.07406285 -0.10186123 -0.19242857 0.13299096
000150 82 9b 97 bd 59 d0 5f be ad a0 18 3e 3e a0 8e 3d
       -0.07402708 -0.21856822 0.14905043 0.069641575
000160 ed 17 2b 3d 0f 62 e9 bd 04 fd 99 3d 4a a4 c2 bb
       0.041770864 -0.11395656 0.07518962 -0.005939995
000170 d9 6b 63 be 1d c0 eb 3d 0c 2a 47 3e a5 8e 8f 3d
       -0.2220911 0.11511252 0.19449633 0.07009629
000180 70 96 1d 3e 33 3c 9e bd 96 64 3a 3e 36 90 d6 bd
       0.15389419 -0.07726326 0.18202433 -0.10476725
000190 f2 20 69 bc 56 3f 57 3e e4 4a 5e 3e 6b 4c 0f 3e
       -0.014229046 0.21020254 0.21708256 0.13993995
0001a0 0b 83 f7 3b 36 e5 b4 bd 70 0e f3 3d e3 7a 20 bd
       0.0075534633 -0.08832781 0.11867988 -0.039179694
0001b0 f3 ee 02 be 83 f0 99 3d 7b fc 8c 3d 6d db 1e 3e
       -0.12786464 0.07516577 0.06884094 0.15513392
0001c0 45 e3 78 3d 84 88 02 3e 27 bd ae bb 6d 1f 2f bd
       0.060763616 0.12747389 -0.0053326073 -0.04275458
0001d0 c5 c7 86 bc 19 f1 f0 3d 56 54 8e bb fa 16 56 bd
       -0.01645268 0.11764736 -0.0043435497 -0.052268006
0001e0 5c 2a a0 bd e3 d0 59 3e 49 69 07 3d 5d c8 c4 3d
       -0.078205794 0.2127109 0.033059392 0.09608529
0001f0 2a c8 05 3e 7c c7 49 be ef be 1f 3d 33 a8 3b bd
       0.13064638 -0.19705003 0.039000448 -0.045814704
000200 0f 48 29 bd c6 bd 9b 3d a1 f5 ad bd a9 56 b4 3d
       -0.041328486 0.07604556 -0.084941156 0.088055916
000210 de a2 1b 3d 9e fa d2 3d 43 a2 11 bd 55 2c 96 bc
       0.03799712 0.10301708 -0.035555135 -0.018331686
000220 60 73 2b 3e 85 32 0f 3e 1c a5 40 bd 32 7d 01 be
       0.16743231 0.13984115 -0.04703246 -0.12645414
000230 3a a5 22 be 07 2b 1e 3e c4 aa c0 bd 2a 14 6b bc
       -0.15883341 0.15446101 -0.09407571 -0.014348069
000240 61 39 8a bd a7 4e 33 be 71 f0 5b 3e 33 1b ed 3d
       -0.067492254 -0.17510472 0.2147844 0.115774535
000250 a2 07 22 3d 37 05 47 be 0b 05 b9 3d 14 72 04 3d
       0.03955806 -0.19435583 0.09034165 0.032335356
000260 68 d6 45 3e 08 37 46 3e f1 c6 85 3d 86 5e e0 bd
       0.1932007 0.1935693 0.06532086 -0.10955529
000270 e8 4a 95 3d 01 56 3f 3e f8 de 20 3e 26 e4 4f 3d
       0.07289678 0.18685152 0.15710056 0.05075469
000280 f8 fc 4e bd 06 08 c7 bd be ef 6b 3e 8e 5d 72 3c
       -0.05053422 -0.09718327 0.23040673 0.014792813
000290 b6 49 0b bd c2 db 3d be e6 b7 02 3d 01 2a 43 3d
       -0.034005843 -0.18540862 0.03191366 0.04764748
0002a0 a0 f5 5d be 73 80 8d bd c2 f6 a4 3d 75 06 2d be
       -0.2167573 -0.06909265 0.08054878 -0.16896994
0002b0 90 32 3f be 16 b2 c7 3d 50 1f ac bd 4e 94 36 bd
       -0.18671632 0.09750764 -0.0840441 -0.044575028
0002c0 d1 ab 88 3c d4 bc e8 3d f0 e1 1d be 83 d5 a8 3d
       0.016683491 0.11364141 -0.1541822 0.08243849
0002d0 34 48 34 bd 56 29 83 3d 06 b9 54 3e ac 66 fe 3d
       -0.04401417 0.064043686 0.20773706 0.12421927
0002e0 db 9e 84 bd 13 84 1a 3e 04 80 95 bd 19 ab b9 3d
       -0.06475612 0.15089445 -0.07299808 0.090658374
0002f0 bb 9c 9a 3d 79 62 fc 3d 8d 3a 04 bd c7 19 5e bd
       0.07549425 0.1232347 -0.0322824 -0.054223802
000300 49 bb 00 3d a2 0d b1 3d 48 66 51 bd 12 28 a6 bc
       0.03142861 0.086451784 -0.051122934 -0.020282779
000310 7c 3b 5c be 45 81 d5 bd c2 0d d4 3d b4 b2 1d be
       -0.21507066 -0.10425047 0.103541866 -0.15400201
000320 2b 6b 31 be 06 8e 0f 3e b2 1e f2 bd bf b5 55 3d
       -0.17326038 0.14019021 -0.11822261 0.05217528
000330 63 96 ab 3d 94 0d 90 bb e9 17 4a be 44 d5 01 be
       0.08378293 -0.00439615 -0.19735684 -0.1267901
000340 d4 03 e1 3d 77 bf a3 bd 5a 9a 59 3d f9 af e6 3d
       0.10987058 -0.079955034 0.053125717 0.11264033
000350 bd 97 3b 3e 63 2a 55 bc 2a cc eb bd b5 7f 4b be
       0.18319602 -0.013010594 -0.115135506 -0.19872935
000360 8d e2 bd 3d 3f 9a 94 3d 9d 21 35 3e 43 d0 45 bd
       0.09271727 0.072559826 0.17688604 -0.048294317
000370 0a 18 91 3e bf 8d 36 3d 25 76 29 3e 8c 16 3f bd
       0.28338653 0.044568773 0.16548975 -0.04665236
000380 5e b7 e8 bc d5 0a d6 bd 45 8e ce bd 70 36 31 be
       -0.028407749 -0.10451285 -0.100857295 -0.17305923
000390 3a 62 22 3c 71 cd cf 3d 78 e8 2a bd 5d d0 25 be
       0.009911114 0.10146607 -0.041725606 -0.16192766
0003a0 f7 9f d2 3d f3 62 8c bd b8 80 5d be ce 8f 05 be
       0.10284417 -0.068548106 -0.21631134 -0.13043138
0003b0 62 0b af bd b3 8b 70 3d bb e3 e4 bd e9 73 40 3e
       -0.08547093 0.058726978 -0.11176249 0.18794216
0003c0 97 10 f3 3d d7 cf 35 3d 34 75 06 bd 87 b0 d5 3d
       0.11868399 0.044387665 -0.032826617 0.104340605
0003d0 56 64 be 3c 82 e2 17 3e d2 93 65 bd 25 a6 b9 bd
       0.023241203 0.148325 -0.056049176 -0.09064893
0003e0 9b 98 45 3c b6 76 13 bc 98 ab 99 bd 2c b1 45 3e
       0.01206031 -0.009000471 -0.07503432 0.19305867
0003f0 e0 82 2a 3d 01 4f af bd 8e c1 af bd 06 15 da 3d
       0.04162872 -0.08559991 -0.085818395 0.10648541

lin1.weight f4 [80, 256]
000000 1f 3e 15 bd 89 9e 81 3d d4 57 ab 3c c0 70 b3 3d
       -0.036436196 0.06329066 0.020915903 0.0876174
000010 8a 89 84 3d 50 b4 c0 3c 31 cb 14 be d9 95 9d 3c
       0.06471546 0.02352348 -0.14530636 0.019236492
000020 24 07 ee 3d ee c8 00 3e 8e 52 34 3d ec 9a 8e bd
       0.11622456 0.12576649 0.044024043 -0.06963143
000030 0a f4 3d 3d f4 bb d7 bc 2d c8 06 3d 51 a1 be 3d
       0.046375312 -0.02633474 0.032905746 0.093081124
000040 b4 81 cc 3c cc 50 60 3d 39 6d ca 3d 5c 55 3a bd
       0.024964191 0.054764554 0.09884114 -0.04549156
000050 ac 97 af 3c 12 0b 89 bc ae 70 98 3d d1 4b c2 3c
       0.021434627 -0.016728912 0.07443367 0.023717793
000060 59 80 32 3c 67 66 41 be 5f 45 a0 bd f3 b0 84 bc
       0.010894858 -0.1888672 -0.078257315 -0.016197657
000070 d5 d4 6b 3d b1 4a 03 be 67 66 ed 3d f1 8d 80 3e
       0.05757602 -0.12821461 0.11591797 0.25108293
000080 4b 80 80 3d 0f c9 be 3d 98 b0 6e 3d 56 cf 91 bc
       0.0627447 0.09315693 0.05827388 -0.01779906
000090 3c 9e b3 3d c8 98 04 3e 74 ce ef bc db 0a 33 3e
       0.08770415 0.12948906 -0.02927325 0.1748461
0000a0 66 eb fa 3d 9a 74 a5 b9 40 8e 01 bd ad a8 11 3d
       0.1225193 -0.00031558127 -0.0316298 0.035561252
0000b0 3c f0 14 bd bb 07 38 3e 8d d2 0e 3d 3a 27 16 be
       -0.036361918 0.17971699 0.034868766 -0.14663401
0000c0 eb 21 28 bd ff fd 1f be 76 db 1b 3d 60 94 da 3d
       -0.04104797 -0.15624236 0.03805109 0.106728315
0000d0 ba 49 8e bb a6 d9 4c 3d da 94 94 3b 3f bc 31 3d
       -0.004342285 0.050012253 0.004534346 0.043392416
0000e0 41 14 c8 3d cf 91 2a 3e 31 6b c2 3d a5 e6 65 3d
       0.09769488 0.16657184 0.094931014 0.056128163
0000f0 8e 57 69 3c 74 d1 28 3d e7 80 bf bb f8 07 95 bc
       0.014242066 0.041215375 -0.005844224 -0.018192276
000100 d8 4b bf bc 50 1a dd bb bb 60 37 bd 06 d5 45 ba
       -0.023351595 -0.0067475215 -0.044769984 -0.00075466966
000110 3e c7 87 3d dd d8 59 3d ac 4e dd bc 70 29 b0 3d
       0.06629799 0.053185333 -0.027015053 0.086016536
000120 d2 b5 85 bc 27 82 82 bd e2 3d 1c 3d 6b 3a 8a 3e
       -0.01632205 -0.06372481 0.038144954 0.26997694
000130 48 7f ca 3d 54 88 4b 3e 68 5f 00 3d c0 cc 4a 3d
       0.09887558 0.19876224 0.031340986 0.04951167
000140 51 77 ab 3d fc 56 81 bd 3e e4 09 3d 4e c3 08 bd
       0.08372367 -0.06315419 0.033664934 -0.033389382
000150 7f 20 de bd 00 87 79 3a cb 28 b7 3d 16 af 78 3d
       -0.10846042 0.0009518713 0.089433275 0.06071385
000160 b3 66 0d be 99 a9 0a 3d 12 71 c1 bb f7 09 76 3d
       -0.13808708 0.033853147 -0.0059033716 0.060068097
000170 38 26 7d bc 28 11 6f bc 17 98 a9 3d a2 d2 1a 3d
       -0.015451007 -0.014591493 0.08280962 0.03779853
000180 5a 97 99 3d 3d 05 6a 3d 82 1f 82 3d 14 a2 0b 3e
       0.07499571 0.057133902 0.06353666 0.13636047
000190 d0 78 50 3e fb 74 28 3e 14 c4 e1 3c 86 6d a3 3d
       0.20358586 0.16450875 0.027559318 0.07979874
0001a0 e9 ae 94 3d 9d 69 2c 3d 95 1b 17 3e 45 cb 4c 3d
       0.07259924 0.04209291 0.14756615 0.04999854
0001b0 63 01 8a 3c 46 c2 c7 3d 15 69 43 3e ed a9 54 ba
       0.016846364 0.097538516 0.19083054 -0.0008112479
0001c0 1e f2 2a 3d 38 e3 93 3c 7a 31 ae 3b 6d 77 36 be
       0.041734807 0.018052682 0.0053159567 -0.17818995
0001d0 e5 12 ea bd 86 0c 32 3b 11 c6 38 3d 60 c6 fe bb
       -0.11429385 0.002716811 0.045110766 -0.007775113
0001e0 dc 64 8e bc 8a 79 1c 3d 55 8d 4e bd 2d 84 37 3d
       -0.017382078 0.038201846 -0.050427753 0.044803787
0001f0 41 4a d3 3c 94 7e c6 bd 37 42 7b 3e f0 86 c1 bc
       0.025792243 -0.096921116 0.24536978 -0.023623914
000200 3b f0 92 bd 24 7d 4c 3e ff b7 8b bd 25 12 dd bb
       -0.071747266 0.19969612 -0.06822204 -0.0067465478
000210 b4 8a 03 3e 9e 64 c6 bc 00 77 d1 bd 03 c9 38 be
       0.1284588 -0.0242179 -0.102277756 -0.1804543
000220 ab b0 1b 3e 14 87 c5 3d 73 b1 e1 3d 36 32 d7 bd
       0.15204112 0.09644905 0.11020174 -0.10507624
000230 a3 47 47 3b 8a 99 99 3d 32 81 3f bd 50 42 80 be
       0.003040769 0.074999884 -0.04675407 -0.25050592
000240 ac ed 23 3d 38 1a 85 bc 3e c6 c8 bc fd 05 07 bd
       0.040021583 -0.016247854 -0.024508592 -0.032964695
000250 d2 56 c0 bd d8 e5 54 bd 4b 46 47 3e 38 44 83 bd
       -0.0939156 -0.05197701 0.19460408 -0.06409496
000260 d9 e7 22 3c 16 a6 93 3d 6c df 1c be 30 05 04 bd
       0.009942972 0.07209413 -0.15319604 -0.03223151
000270 ae d3 1c 3e 56 54 6a bc 6d 87 2e 3e 83 0b 6a 3d
       0.15315124 -0.014302334 0.17043848 0.057139885
000280 60 d3 42 3b 6d 05 65 3e 91 c8 d7 3d 4e cc d0 3d
       0.002972804 0.22365351 0.10536302 0.10195218
000290 27 8a 1d 3e 6f df cb bc 23 fb 14 be 3d dc bf bd
       0.15384732 -0.024886815 -0.14548926 -0.09368179
0002a0 5c 9c a9 bc 29 32 b9 3c ac 82 b0 3c e6 e4 1f bd
       -0.02070444 0.022606926 0.021546684 -0.039036654
0002b0 22 6e 70 3d 2f d0 b6 3c 3c 9d 85 3c ac 4c 99 3c
       0.05869878 0.022316067 0.016310327 0.018713318
0002c0 6b 30 19 be f2 92 18 3d d0 ed e6 3c 3f bb 01 3c
       -0.14959876 0.037249513 0.02818957 0.007918178
0002d0 35 41 8d bc 73 f6 10 3c 26 de cb 3d 9e 42 33 3d
       -0.017243007 0.008847821 0.09954481 0.043764703
0002e0 c5 ee 1c bd da a0 df 3d 2b 6f 92 3d 30 cc d3 bc
       -0.038313646 0.10919352 0.0715011 -0.0258542
0002f0 d3 a9 6d bd c8 03 12 3d 45 67 27 3d 85 3a 0c 3d
       -0.058023285 0.035648137 0.04086997 0.034235496
000300 79 98 01 3d aa 23 11 be 4f 3e 04 3e 0e 91 fe bd
       0.03163955 -0.14173761 0.12914394 -0.12430011
000310 08 b9 e3 bc e6 76 75 bd ca b4 58 3d 08 a5 d3 3c
       -0.02779819 -0.059927844 0.05290679 0.025835529
000320 88 09 af 3c e6 71 0c 3e a6 8b 24 3e ee f9 29 3d
       0.02136685 0.13715324 0.16068897 0.041498117
000330 5a 44 57 be 13 ab 48 bb 0e 9a 34 be 4c 71 eb 3d
       -0.21022168 -0.0030619546 -0.17636892 0.11496219
000340 62 08 7f 3c 7c e4 9d bc d2 9c 13 3e 51 df a6 3d
       0.015565963 -0.019273989 0.14415291 0.08148063
000350 e2 e7 1b bd 00 22 24 bd 88 a7 1e bc e0 d0 dd 3b
       -0.038062938 -0.040071487 -0.009683497 0.0067692846
000360 b0 67 c3 3d 59 5f a9 bc f6 48 13 3d df 97 b1 bd
       0.09541261 -0.020675348 0.035958253 -0.08671545
000370 e6 19 19 3e 72 6e 02 3e 46 a2 62 bd 16 72 a1 3d
       0.14951286 0.12737444 -0.055330537 0.07883088
000380 55 f0 aa bd 4f 63 92 bd be 3a d1 3d 28 1c 93 bc
       -0.08346621 -0.07147848 0.10216282 -0.017957762
000390 54 70 33 3e dd 57 30 bd 12 8d c4 3c f5 22 00 3b
       0.17523319 -0.043052543 0.023993049 0.0019552086
0003a0 0f 88 60 3e ad da d6 3c 22 88 af 3b b8 1b 34 3d
       0.21926902 0.02622732 0.0053568045 0.043971747
0003b0 8b be b8 3d 2c bb 05 3a de 84 23 3e f8 f2 35 3d
       0.09020718 0.0005101438 0.15968654 0.044421166
0003c0 e5 cc bd 3d 7e 11 be bd 65 49 05 bd f5 d6 35 3e
       0.09267596 -0.0928068 -0.032540698 0.17757781
0003d0 5d 77 95 3d e4 94 95 3d 55 bb 19 3d d0 db 65 bc
       0.07298157 0.07303789 0.03753217 -0.014029458
0003e0 a7 d0 a2 3d 89 92 20 3e 95 ea 90 3d ba ed 77 3c
       0.079499535 0.15680899 0.07075993 0.015132362
0003f0 f2 1d 83 3e fa bc 23 be c8 7d dc bd 6b 8f c8 3d
       0.25608784 -0.15990058 -0.10766178 0.0979298

lin1.bias f4 [80]
000000 82 04 bb 3d 9f 4b ce 3d 47 5c 12 bc fb e2 1a 3c
       0.09131719 0.10073017 -0.008933133 0.00945353
000010 9e bc 86 3d 62 21 24 bd 79 b7 1b bd 19 07 dd 3d
       0.065789446 -0.0400709 -0.03801677 0.107923694
000020 74 71 d3 bb e1 71 8a 3d 06 ad 6e 3c b5 d0 1c 3b
       -0.0064527337 0.06760002 0.014567619 0.002392811
000030 19 ae bd 3d 03 ae 60 3d cd 19 1c 3d c9 e6 ad 3d
       0.09261722 0.05485345 0.038110543 0.084912844
000040 82 d9 8e 3d 72 2f b1 3d 1a c6 04 3e 56 6a 7d 3d
       0.0697508 0.086516276 0.12966195 0.061868988
000050 42 a4 f7 3c 92 9e d9 3b a0 d6 38 3d a4 ef 04 3d
       0.030229691 0.0066412175 0.045126557 0.0324551
000060 76 19 1a bd 5b 8a ff 3b 4b cb df 3d 5f a8 8f bd
       -0.037621938 0.0077984757 0.10927447 -0.07014536
000070 1c 9f 98 bd c3 c5 3c 3c 22 92 4e 3c d4 ca 6e 3d
       -0.07452223 0.011521759 0.012608083 0.0582989
000080 0d 9a 93 3c 32 86 28 3d 88 1e f5 ba ca 60 29 3d
       0.018017793 0.041143604 -0.0018701116 0.04135207
000090 55 f1 a3 3d 2e 33 9a 3d ca 5d f7 3d 0d 28 8d bc
       0.08005015 0.07529293 0.12078436 -0.017231012
0000a0 30 21 85 3d 46 34 b0 3c fd ab 63 bb 01 81 c6 ba
       0.06500471 0.0215093 -0.0034739964 -0.0015144647
0000b0 e0 ff b2 39 44 7b 80 3d 96 25 a7 bd ce c4 33 3d
       0.00034141447 0.06273511 -0.08161466 0.04388886
0000c0 7d 02 34 3d 0b c5 99 3c 30 e9 1b 3d 9c 10 9a 3d
       0.043947686 0.018770715 0.03806418 0.07522699
0000d0 e6 cc 28 bb 19 81 4f 3d 15 34 d0 3d ba 79 fa 3c
       -0.0025756895 0.050660226 0.10166184 0.030575622
0000e0 03 b3 c1 bc 1e 6d 87 bc 3a 90 b8 3d 50 e6 71 3d
       -0.02364493 -0.016531523 0.09011884 0.059057534
0000f0 33 e5 07 bd ac fc 75 3d b5 ac 83 bc 67 26 04 bd
       -0.033177566 0.06005542 -0.016073564 -0.032263186
000100 5d 62 13 3d c3 1b 89 3c 41 ef c3 bc b0 d6 b5 bc
       0.03598248 0.01673687 -0.023917796 -0.022197098
000110 07 98 96 3d ba fe 42 3d 0b eb 25 3c 25 0f d9 3c
       0.07353216 0.047606207 0.010126839 0.02649648
000120 6f 97 80 3d b4 76 8c 3d a1 15 2c 3c b9 9f 08 3d
       0.06278884 0.06858578 0.010503204 0.03335545
000130 3e b0 4a bc 91 8c 47 3d d8 c4 22 3d a5 c9 25 bd
       -0.012371121 0.04871804 0.039738506 -0.040475506

outp.weight f4 [6, 80]
000000 5b b1 90 3d cc 05 f4 3d db ad bc bd f4 77 c8 bd
       0.07065078 0.11915168 -0.09212848 -0.09788504
000010 e0 f3 f7 bd 2e a3 ce 3d 34 7d 87 3d a3 13 db bb
       -0.12107062 0.10089718 0.066156775 -0.0066856905
000020 db c8 29 be e0 b7 73 3b e9 5d 80 be 31 48 80 be
       -0.16580527 0.0037188455 -0.25071648 -0.25055078
000030 ac e5 a6 be 37 2f 42 be d3 e6 3f bc fc b4 4a bd
       -0.325971 -0.18963324 -0.011712748 -0.049489006
000040 75 81 61 3d 5b fc 37 3c 8d a9 35 bd 33 97 8f be
       0.0550551 0.0112296 -0.04435115 -0.28045043
000050 fe ac 35 3b c8 a0 ad 3d 73 3e fc bd bb 4d 2d 3e
       0.002772152 0.08477932 -0.12316599 0.16924183
000060 9c ca 14 be f0 32 26 bc 46 be 6c 3d 59 6b 85 3d
       -0.14530414 -0.01014398 0.057798646 0.065146156
000070 b2 0d 2e 3b 68 60 20 3e 55 da ac 3d e5 8e 13 3e
       0.0026558456 0.15661776 0.08440081 0.14409979
000080 56 14 14 be b7 62 03 be dc 72 bd 3d c7 7f 8c 3d
       -0.14460883 -0.12830625 0.09250423 0.06860309
000090 57 cd 45 be b1 1e d0 3d fe 08 6b bc a6 0f 31 be
       -0.19316612 0.10162104 -0.014345406 -0.17291126
0000a0 86 0c cc 3d b8 b5 41 3d f6 1b 45 3e 41 6c 2b 3e
       0.09963326 0.04729244 0.19248948 0.16740514
0000b0 a0 5d 56 3e 04 20 e8 bd b7 7b 73 bd e0 a3 7a be
       0.20934153 -0.113342315 -0.059444156 -0.24476576
0000c0 2e ee 04 3e 5c e5 33 be 25 f5 d5 bd 80 ff 03 3e
       0.12981483 -0.17567962 -0.10447148 0.12890434
0000d0 81 f4 ff 3d 37 65 a2 3d 05 34 09 be 75 2b dd 3d
       0.12497807 0.079294614 -0.1339875 0.107993044
0000e0 41 98 af 3c fe 52 33 bd 17 20 aa 3d c6 04 1e 3e
       0.021434905 -0.04378032 0.08306902 0.15431508
0000f0 2c d9 f5 3d fe 9a e6 3d 17 55 80 3d 5f 77 d3 3d
       0.12004313 0.11260031 0.062662296 0.103255026
000100 3d 58 91 3d 8c 56 04 3e 12 86 1c 3e ae 59 64 bc
       0.07096908 0.1292364 0.15285519 -0.013937397
000110 66 e7 f4 3d a1 55 9e bc 81 8f 66 bd 9d b0 fc 3d
       0.11958198 -0.01932794 -0.0562892 0.12338374
000120 0a ce 51 be d7 3c f8 3d 05 23 9d be 97 af 57 3e
       -0.20488754 0.12120979 -0.3069078 0.21063076
000130 5d 60 1f be e9 48 ba 3d d4 5e ce bd b7 c6 13 be
       -0.15564103 0.09095938 -0.10076681 -0.14431272
000140 0f 57 a3 be 05 b5 97 be dd ec 7f 3d 26 00 21 3e
       -0.31902358 -0.29630294 0.06248175 0.15722713
000150 d1 da 0c 3e ab 00 1e bd 46 28 14 3c ac 33 0f 3d
       0.13755347 -0.038574856 0.009042805 0.034961388
000160 cd ea 3a bd 64 62 19 3e fc f6 04 3e 82 70 22 3e
       -0.04563408 0.1497894 0.12984842 0.15863231
000170 79 a4 b4 3d 28 c1 09 3e 50 b2 90 be 8c 5e fb 3d
       0.08820433 0.1345259 -0.28261042 0.12273893
000180 f8 2f 3c be 13 96 1f 3e 7e bf db 3d 3e 1c e6 3d
       -0.18377674 0.15584593 0.107298836 0.112358555
000190 26 6b ab be 03 d3 9e be 3c 50 31 3e 00 0c 40 be
       -0.33480185 -0.31020364 0.17315763 -0.18754578
0001a0 ce 1a 86 3d 98 9c 2a bd 4f 6e dc 3d c0 26 b5 bc
       0.06548081 -0.041653246 0.10763227 -0.022113204
0001b0 50 59 48 bd 4e ac 40 be 01 44 70 be b4 0f ab be
       -0.0489133 -0.18815729 -0.23463441 -0.33410418
0001c0 25 db 24 3e 14 60 0e 3e d2 e3 40 be 1e 6a 99 be
       0.16099222 0.13903838 -0.18836907 -0.29963773
0001d0 50 05 cb 3d c9 d4 26 3d 0b bd 1e 3e a4 77 45 3e
       0.09913123 0.04073027 0.15501802 0.1928392
0001e0 d4 8d 65 be 95 89 c4 3d 72 e2 d8 bc d1 1e cc bd
       -0.22417384 0.09596554 -0.026475165 -0.09966815
0001f0 65 2f 4f bd 7e 60 90 ba 88 ee f6 bd f3 74 06 3e
       -0.05058231 -0.0011015085 -0.12057215 0.1313055
000200 13 6e 5c bc d6 10 84 bd db 74 91 3d 34 ad 6b be
       -0.013453978 -0.06448524 0.071023665 -0.2301529
000210 dd 5a eb 3b 8f 1e 87 bd c1 d6 08 3e 8d c5 af bd
       0.0071824626 -0.065976255 0.13363172 -0.08582602
000220 3b 72 e4 bd e8 88 a4 bd cf 3c 9c be 2d 8f 9b be
       -0.111546 -0.08033925 -0.30515143 -0.30382672
000230 ce b9 8a be ba e8 c0 be a2 d1 ae be e9 6e 72 be
       -0.27094883 -0.37677556 -0.34144312 -0.23675121
000240 f9 ce d8 bc 43 af 8d be 8f ba bf bd af c2 86 be
       -0.02646588 -0.27672777 -0.09361755 -0.26320407
000250 04 8e 2b be 8b 6c 2d bd 52 49 4a 3e 4e 1a 85 be
       -0.16753393 -0.042339843 0.19754532 -0.2599663
000260 6d e1 20 3e 31 d9 5f be d8 73 d4 3d 82 f7 93 3c
       0.15710993 -0.21860196 0.10373658 0.018062357
000270 73 1e 33 3d a8 75 94 bd a6 e0 45 be 64 57 85 3c
       0.04373021 -0.07249004 -0.19323978 0.016277023
000280 ae ec 6c 3d cd e7 f3 3d 47 44 53 bd 01 8f 1b bd
       0.057842903 0.11909447 -0.051578786 -0.037978176
000290 c7 a5 9a bd 1c 5b 38 be c8 e1 84 bd a8 07 8f be
       -0.07551151 -0.18003505 -0.06488377 -0.2793553
0002a0 d2 b5 8e 3d 96 fb d0 bd 78 ec 58 be 16 ea 0c be
       0.06968273 -0.10204236 -0.21183956 -0.13761172
0002b0 f4 65 39 be 69 e1 4c be b2 b2 0d bc 8c 7a 7d be
       -0.18105298 -0.20007862 -0.008648561 -0.24753779
0002c0 bb d9 a8 3c 0a 51 b1 be ed 65 b1 be ae a0 5c be
       0.020611634 -0.3463214 -0.34648076 -0.2154567
0002d0 a9 1b fc 3b e1 64 99 3d 5d 5a ee bd ff d2 c6 bc
       0.007693727 0.07489944 -0.11638329 -0.024270533
0002e0 d5 d3 2e be 06 6e 3b 3d d8 07 8b be 28 57 78 3d
       -0.17072995 0.045759223 -0.27154422 0.060629994
0002f0 ca 1f 86 3d 47 09 5b 3e d6 7a ae 3d 5d b7 09 3e
       0.06549032 0.21390258 0.08519523 0.13448854
000300 1c b4 b9 bd 62 5f ac be 9c ff a7 3d 62 ec 8f 3d
       -0.09067556 -0.3366652 0.082030505 0.07027508
000310 28 8f af be e5 48 96 bd aa d6 a6 be 26 91 67 bd
       -0.34288907 -0.07338122 -0.3258565 -0.05653491
000320 9c 59 cc 3d e3 e4 63 bd 72 5f 53 3e fe e9 82 bd
       0.09978029 -0.055638205 0.20641878 -0.06392287
000330 ce 6a 68 3e be 47 84 be e8 af 6c 3e 96 a7 9a be
       0.22696993 -0.25835985 0.23113978 -0.30205983
000340 f3 0b 08 be 95 8d 6b 3e d5 ad b1 be 18 76 08 3e
       -0.13285808 0.23003228 -0.34702936 0.13326299
000350 b4 9c 3d 3e 69 54 56 3e 6b 95 4f be d1 8f 01 3e
       0.18516809 0.20930637 -0.20271842 0.12652518
000360 3f e3 22 bc 7b bc 83 3e ee 33 8a 3d 5f 7e 25 3e
       -0.009941875 0.25729737 0.06748186 0.16161488
000370 79 04 e7 3d 90 ab d3 3d 90 3a 2d 3d ad c9 11 3e
       0.1128015 0.10335457 0.042292178 0.1423709
000380 7d bf 45 3e a3 f0 01 3e f2 9e 4a 3e 0d 91 29 3d
       0.19311328 0.12689452 0.19787195 0.041398097
000390 6f 00 04 3e 2b 17 72 be df 0a 37 be d1 74 06 3e
       0.1289079 -0.2364165 -0.1787524 0.131305
0003a0 6a 7e 5d be 55 06 0d 3e 25 e8 8d be 2d 87 64 3e
       -0.21630254 0.13771947 -0.27716175 0.2231719
0003b0 19 1c 1c 3d 2f 9d 2e 3e e9 2a cc bd a6 c8 53 3e
       0.038112734 0.17052148 -0.09969122 0.2068201
0003c0 7b 1d 98 bd 16 5d 8a be bb 39 fa bc 2a be ea 3d
       -0.07427498 -0.27024144 -0.030545106 0.11462052
0003d0 f0 01 fc 3d bb fd ae 3d 7a a3 b1 bd 7e 2b b0 3d
       0.12305057 0.08544489 -0.08673759 0.086020455
0003e0 53 a1 3d bc 32 47 dd 3d b1 d1 02 3e 82 8e 19 3e
       -0.011574107 0.10804595 0.12775303 0.14995769
0003f0 9b 11 a9 3d 64 1e a2 3c a4 74 e2 bd 36 55 ed 3d
       0.08255311 0.019789882 -0.11057404 0.11588518

outp.bias f4 [6]
000000 38 a4 df 3d 56 c1 30 3d e7 8b 25 be 9d 2b 75 3b
       0.10919994 0.04315313 -0.1616665 0.0037410029
000010 08 ae c8 bc 23 99 b0 bb
       -0.024497047 -0.005389349
